api/20.pth (torch_old, 100153 bytes, 9 tensors)

conv1.0.weight f4 [8, 3, 3, 3]
00000000: 90f4 3e3e 82b4 9dbc 48ae 01be 5825 4abd
00000010: 1dec 7e3d 2e37 dcbd 05bc 813e dcd8 d2bc
00000020: 10d3 21be 1c67 fd3d 4683 57bb 580e 10be
00000030: 198d df3d f5f2 003e 7e71 1c3e 409a 3bbe
00000040: f6e9 48be 5e71 aa3d acf5 67bb 92ab 5dbd
00000050: 3196 5bbe e045 c5bd 6e83 853d 5513 0e3e
00000060: 477f 443e 0f7e 88bc a9ba cebd 465d c4bb
00000070: 6e3e d1bd 4d2a bd3d cdd2 163e 4392 1b3e
00000080: 5373 2fbd 5cf8 213e 55c3 513c b1dc 373d
00000090: 6d26 593e f1b5 08be 3056 4dbd a992 f33b
000000a0: 3d8b 35bd e225 4f3e bfba 9a3d c978 5a3e
000000b0: 6478 88bc ed30 1e3c d89e 163e a2dc 48bd
000000c0: 3051 443e d510 b0bb 0c7c 0fbe 7904 8abd
000000d0: d4bb 82bd 0b89 1fbd 089b 17be 5911 3dbe
000000e0: 2559 b0bd 6355 933d 1557 17bd 6da0 32bd
000000f0: 71f1 29be 119b 123c 14bd e6bd 6caa 2f3e
00000100: 3ee3 d63d 7aba 893d bbf5 983c f90f 04be
00000110: d3f7 553e 4343 103d 34f4 9ebd a261 0a3e
00000120: 4baf a139 c579 073e 31e0 983d b43f 0e3e
00000130: d6de 57be 2429 6e3e 8814 03be a83b b53d
00000140: fd25 9ebc 3edd 1bbe 0ba2 53be 80a8 ff3d
00000150: 9395 c7bc 6d0a 06be 0ec3 4dbd cc50 ed3d
00000160: aa9a 883d d776 40be a5c9 32be 8558 3a3e
00000170: 954b 853d e85f 2bbc 975b 823d fb54 4fbd
00000180: e5c8 013e 953f c43d 43b2 033d 2b02 2c3d
00000190: 1754 10be 1b38 0b3b 2903 dc3d 63b2 c1bd
000001a0: 56d3 3ebe 8825 ac3d 132a 92bd 8957 603d
000001b0: 7598 323e 5f3a 04be 5876 44be 0efe 00be
000001c0: e0a3 d8bc 5302 05bd cdcd 123d 8a8c a3bd
000001d0: 4426 073e 7051 25be 0329 0bbe 0b15 333e
000001e0: 12e7 edbd 0762 7ebc 09e9 833d 8eff fabc
000001f0: 6d37 4a3e f419 553e 4ea4 a4bd 308e 9d3d
00000200: 3d40 e23d 68f3 733a cd6c 15be 64d1 ac3d
00000210: c273 20be 78a4 ea3d 23ce 033e 6496 223d
00000220: 49b6 fe3c 4855 413e 656f 273d 3347 c0bc
00000230: b4c2 843d fa41 953d 1ce5 8b3d c680 d5bc
00000240: 62a9 9a3b 2d44 0dbd 19ab 5bbd 4f03 cd3d
00000250: 7094 2dbe 61cd a4bd 09b5 c1bd 720b 29be
00000260: e4dd 31be e146 42bd 1342 dbbd 9cac 9cbc
00000270: 542b e33d c592 ca3d 7512 2d3e c7bf 5abd
00000280: b46d 893d 99c1 68bd 335d 903e 6ba1 fabc
00000290: 0d03 2bbe 2bce 50bd 7a1c 30be 92ec d63d
000002a0: 42af 123e 9805 56bd 7035 ec3d 6f25 40ba
000002b0: dc7b 1bbe d04e a9bd daba 5a3e 5e85 fcbd
000002c0: ed0d 92bd ea6e 113e bb8e e73c b507 6c3c
000002d0: 916a e0ba dd20 993d b645 3fbe 89ed 073e
000002e0: 5d1c 6d3d 6423 78bd 436e b5bd 6238 f9bd
000002f0: 412a 31bd 340f 9e3e 77eb 103e 7940 56be
00000300: 3f67 b03e 962e 8b3e 1d02 bebc 5fd0 7f3e
00000310: 2f87 743e 0cad 22be 91b3 3dbe 787d 0abe
00000320: b544 a03d eec0 98bc d645 a83d 8761 76bd
00000330: a730 db3d c836 c2bc 2980 763d b4ae aa3d
00000340: d24a 41bd 465f 1ebd bc7c 51bd a631 e13d
00000350: 154c 66be 94cd 113e fb24 29be ec6a f83c
0.1864798 -0.019251112 -0.1266414 -0.04935202 0.062236894 -0.10752712 0.2533876 -0.025738172
-0.1580317 0.12373182 -0.0032884642 -0.14067972 0.10915584 0.12592681 0.15277669 -0.1832056
-0.19620499 0.08322404 -0.0035394235 -0.0541187 -0.21444012 -0.09632468 0.06519209 0.13874562
0.19189177 -0.016661672 -0.10094196 -0.0059925644 -0.10216986 0.09236584 0.14728852 0.15192513
-0.04283459 0.15817398 0.012802918 0.044888202 0.21206065 -0.13350655 -0.050131023 0.0074332547
-0.04432224 0.20229295 0.0755515 0.21335138 -0.01665897 0.0096552195 0.14709032 -0.049038537
0.19171596 -0.0053731003 -0.14012164 -0.06739134 -0.063834816 -0.038949054 -0.14805233 -0.18463649
-0.08610753 0.071940206 -0.036948282 -0.043610025 -0.16596009 0.0089481035 -0.112665325 0.17154855
0.10492562 0.06725021 0.01867186 -0.12896718 0.20895319 0.035220396 -0.07761422 0.13513806
0.00030838916 0.13230045 0.07464636 0.13891488 -0.21081099 0.23257881 -0.12800801 0.08849269
-0.019305224 -0.15221116 -0.20667283 0.12483311 -0.024363315 -0.13089915 -0.050234847 0.115876764
0.06670125 -0.18795334 -0.17459734 0.1819783 0.06508557 -0.010459878 0.063651256 -0.050618153
0.12674291 0.0958244 0.032152425 0.041994255 -0.14094578 0.0021243158 0.1074279 -0.09457853
-0.18635306 0.08405596 -0.07136931 0.05477098 0.1744097 -0.12912892 -0.1918577 -0.12596914
-0.02644533 -0.03247292 0.0358408 -0.0798579 0.13198191 -0.16144347 -0.13589863 0.17488496
-0.11616339 -0.015526301 0.06440932 -0.030639436 0.19747706 0.20810682 -0.08039151 0.07693136
0.11047409 0.0009305985 -0.14592285 0.084383756 -0.15669158 0.11457151 0.12871604 0.039694205
0.03109278 0.18880188 0.04087772 -0.02347145 0.06482449 0.07287975 0.068308085 -0.02606238
0.004719899 -0.034488846 -0.05362997 0.10010397 -0.16951156 -0.080469854 -0.09458358 -0.16508272
-0.17369801 -0.047430877 -0.10705962 -0.019125275 0.110922486 0.09891275 0.16901572 -0.05340555
0.06710377 -0.056825254 0.28196105 -0.030594548 -0.16700383 -0.050977867 -0.17198363 0.10494341
0.14324668 -0.05225143 0.1153363 -0.0007329797 -0.15183967 -0.082669854 0.2136034 -0.12330125
-0.071315624 0.14202467 0.028266301 0.014406134 -0.0017121603 0.07476971 -0.18678936 0.13274206
0.057888377 -0.060580626 -0.088589214 -0.12168957 -0.043253187 0.30870974 0.14152323 -0.20923032
0.3445377 0.2718398 -0.023194367 0.24981831 0.23879693 -0.15886325 -0.1852553 -0.13524425
0.07825605 -0.018646684 0.08216445 -0.060151603 0.10702639 -0.023707762 0.060180817 0.08334103
-0.047190495 -0.03866508 -0.051144347 0.10995798 -0.2248996 0.14238578 -0.16518013 0.030324422

conv1.0.bias f4 [8]
00000000: a4d1 7b3d d716 ccbd 0aa0 573e 5bf1 ddbd
00000010: 9772 3a3e 04f9 243e a04e 0bbc 58de d2bc
0.061479226 -0.09965294 0.21057144 -0.108370505 0.18207775 0.16110617 -0.008502632 -0.025740787

conv2.0.weight f4 [16, 8, 3, 3]
00000000: 9512 c73d 3d53 27be d7ae 0dbd 6c43 233d
00000010: 18a0 8f3d 05c5 ae3c 6802 92bd 6210 873d
00000020: b44f ac3c e061 b43d cb3e 1e3d 3fed 803c
00000030: 5f82 dd3d 9f1e b63b 3e87 9f3d 46b3 92bd
00000040: e522 04ba a09c 9dbd 7273 463e da14 b83c
00000050: c784 ecbb 9ab1 183e cb99 693e f961 4d3e
00000060: e231 553e 89e0 243d c77e cf3c aba9 6c3d
00000070: be0a 4aba 0991 1c3e e98d 063d 41ca b0bd
00000080: 6af3 bf3d 5345 ad3c 2c8e bc3d 1fb3 cb3d
00000090: 2246 093e 54f3 373d 1f83 ad3d 2799 203e
000000a0: 8fcb 0ebd 7ab4 56bd 393c 5dbd 65da 2abe
000000b0: f0a4 753d eb36 86bc ddf9 cbbd 00d4 40bd
000000c0: aa84 26be c524 6dbc 7540 913c c902 21be
000000d0: d0d3 7f3d c757 62bc ae08 32bd 382c 113e
000000e0: dbc0 c3bd 5e8a 403d 83a5 f9bc 57f0 5e3c
000000f0: b67c b6bd beb6 7b3d 31ee e8bc b48e 29be
00000100: 45e4 53bc 5d08 de3d 188c a7bd c0e1 fbbd
00000110: ea3d 823d c50d 79bd e0c6 e4bc 3cf3 2e3d
00000120: 75cb 93bd 4694 28be 9d8c a13c 1a45 353d
00000130: fd37 60bc 46d2 bebd 4661 abbd fe5f 633d
00000140: f1f1 4c3d 97bf c73d 455d 6fbd d9a6 a7bd
00000150: 8e67 4e3d e649 3fbd 10ae 9abc 2407 f73c
00000160: d208 e8bd 708a e53d b9fb 913d bedb 403c
00000170: b8cd bcbd 8a03 4dbd 9450 363e 80ee 55bd
00000180: ce9a 973d dbf4 ed3d bfad 543d c67a 3ebc
00000190: c9af 81bd 0d7c 5cbd f5c9 123d 7868 ce3d
000001a0: 3044 06bd c3df de3c cd8a f43d 4c27 b6bd
000001b0: 738c da3d e7c9 39bd 3579 22bd 75d3 d93b
000001c0: 2e71 fe3c cd56 a7bd 3735 253e dbf1 593d
000001d0: b711 c1bd c1b4 07be 4e1e eabd 6f6b 7bbd
000001e0: 0b35 00be 8b34 c7bc 6097 403d 58eb cebd
000001f0: c911 dcbd 5b57 76bd 1313 da3c 8f65 9c3c
00000200: 367a 653d e06a dcbd f605 b5bc 7b1f c5bd
00000210: b911 b3bb 37b1 b33c f76d 81bd 001a 78bd
00000220: 68dc ec3c 78b4 60bd 0ca7 f8bb ddbe 4fbb
00000230: 4060 c43b a0c0 673b 51ff 10bc a438 a73d
00000240: 94b1 4c3e fff1 3bbd 0aa1 94bd 6a69 ef3d
00000250: b04a 3c3c 85a8 1fbd 5f21 e03d a0eb e13d
00000260: 077e fd3c 78c1 de3d 082f 9fbd 180a e8bd
00000270: bb5f 453c 0196 a23d bc89 adbd 88f8 c73d
00000280: 6404 f33d c2fb a03d ed9d 5bbc ca47 b43d
00000290: d515 a03c 6456 0b3c b796 623d ba35 1ebe
000002a0: 7d40 0f3d 50dc 0e3e ed49 0e3e 0f74 d63d
000002b0: 187e 8fbc cf8b 433d 5da1 07bc abea de3d
000002c0: 3afd b6bd 7f54 413d fc89 073d a3b7 f9bd
000002d0: 0844 b73c 34d9 a23d 8346 21be 7953 353d
000002e0: c8b2 b7bc e14e c5bd cec5 603d 6ccc e03d
000002f0: a5b4 dbbd eb06 e83d 8ca7 11be 611c 9d3b
00000300: 98c8 003c 1c32 50bd f95e 60bd 5dbe e8bc
00000310: 7f97 27be 947d 93bd 3250 1bbd 0687 653b
00000320: 848e 91bd 2452 f83c b965 e33d 4b02 813d
00000330: f41d 823d 5b32 8f3d e9b3 7abd f663 463e
00000340: 9bb3 26bc e503 7dbe 83d7 a93d 4dee b9bd
00000350: a9c1 293d 6e79 393e 01b1 78bd 3ed4 0fbe
00000360: 0280 dbbd 8580 1ebd 63df 9f3b c87c 513d
00000370: 3cc5 a23d 83af 3ebd cabb 7ebc bac1 ab3d
00000380: bc07 763c c270 b4bd e3de 223d a2eb 8dbd
00000390: 8d0e 633d 52c6 09bb 296d c63d 5af0 ad3d
000003a0: 8f31 a0bb 4ddb c7bc ab2d 8b3c f63b 013e
000003b0: 23b0 a33d 660e f63d b8ac a83d fe04 343e
000003c0: 4aee 94bd 49d0 cabc 08ec a93c a17d 98bc
000003d0: 8b5e b63d d433 76bd 456a c23d b2f0 98bd
000003e0: a4c2 7fbc 9baf 083e 746f 25bd 973a 56be
000003f0: 788a 113e c325 5c3d 0cf9 c3bd 0b88 88bd
0.09720341 -0.16340347 -0.03459057 0.03985922 0.07012957 0.02133418 -0.07129365 0.06594922
0.0210341 0.08807731 0.038634103 0.015738128 0.10815882 0.0055578495 0.07789467 -0.071631
-0.00050406 -0.076958895 0.19379976 0.02247088 -0.0072179767 0.149115 0.22812574 0.20056905
0.2081981 0.040253196 0.025329007 0.057778995 -0.0007707289 0.15289702 0.03285018 -0.08632327
0.093725994 0.02115122 0.09206805 0.09946274 0.1340566 0.04490979 0.08472275 0.15683423
-0.034862097 -0.05241821 -0.05401251 -0.16684873 0.05997175 -0.016383609 -0.09959767 -0.04707718
-0.16261545 -0.014474099 0.01773093 -0.15723719 0.06245786 -0.013814873 -0.04346531 0.14177024
-0.09558269 0.047006957 -0.03047443 0.013607106 -0.089105055 0.061453573 -0.028433891 -0.16558343
-0.012932842 0.10841439 -0.08181018 -0.12298918 0.063594654 -0.060804147 -0.027926862 0.042712435
-0.07216541 -0.16462812 0.01972037 0.044255354 -0.013685224 -0.0931745 -0.08368163 0.055511467
0.05003542 0.0975334 -0.058438558 -0.081861205 0.050391726 -0.046701334 -0.018881828 0.030154772
-0.11329807 0.112080455 0.071280904 0.011771141 -0.09218925 -0.050052203 0.17804176 -0.052229404
0.074025735 0.11618968 0.05192351 -0.011625951 -0.063323565 -0.05382924 0.035837132 0.100785196
-0.032779872 0.027206307 0.11940537 -0.08894214 0.1067132 -0.045358565 -0.039666373 0.006647522
0.031059828 -0.08170853 0.16133581 0.053209167 -0.09427207 -0.13252546 -0.114315614 -0.061381754
-0.12520234 -0.024317047 0.047019362 -0.10103482 -0.1074558 -0.060141902 0.026620423 0.019091396
0.056024753 -0.10762572 -0.022097569 -0.09625145 -0.005464759 0.021935089 -0.06319802 -0.06057167
0.028913692 -0.05485961 -0.007588273 -0.0031699457 0.005992919 0.0035362616 -0.008849935 0.081651
0.19989616 -0.045885082 -0.07257278 0.11690028 0.011492416 -0.038979072 0.10943865 0.1103127
0.030943884 0.10876745 -0.077726424 -0.1133005 0.01204675 0.07938767 -0.08473536 0.097642004
0.11866072 0.07860519 -0.013404352 0.08802755 0.01954166 0.008504484 0.055319514 -0.15450183
0.03497361 0.1395123 0.13895388 0.10471355 -0.01751618 0.047740754 -0.008278218 0.10884603
-0.08935018 0.047199722 0.033090577 -0.12193229 0.022371307 0.079515845 -0.15749554 0.04426906
-0.022424117 -0.096341856 0.05487614 0.109764904 -0.107278146 0.113294445 -0.1422407 0.004794643
0.007860325 -0.050829038 -0.054778073 -0.028411085 -0.16366385 -0.072016865 -0.037918277 0.0035023107
-0.07107261 0.030312605 0.111033864 0.062992655 0.06353369 0.069920264 -0.061206732 0.1937407
-0.010174657 -0.24708517 0.08293059 -0.090786554 0.041444454 0.18112728 -0.06071568 -0.14045808
-0.10717775 -0.038696785 0.0048789247 0.05114439 0.07947776 -0.0465541 -0.015547702 0.0838656
0.015016492 -0.08810569 0.039763343 -0.06929709 0.0554338 -0.002102275 0.096887894 0.08493109
-0.0048887203 -0.024396563 0.01698955 0.1262053 0.0799258 0.12014465 0.082360685 0.1758003
-0.072720125 -0.024757521 0.020742431 -0.018614592 0.089047514 -0.06010802 0.094929256 -0.07467784
-0.015610371 0.13348238 -0.040389493 -0.20920788 0.14212978 0.05374695 -0.09568986 -0.06666573

conv2.0.bias f4 [16]
00000000: 4843 66bd c0da aa3d 14e5 c8bd 595f b03d
00000010: 2671 82bd dfd0 ac3c fd01 80bd 6f19 1dbd
00000020: 08ee 873d e8f1 d7bd 5970 ce3d 257a cbbd
00000030: 69ef abbd f08e 9fbd b76d bdbd fcae 8bbd
-0.05621651 0.083425045 -0.09809318 0.08611936 -0.063692376 0.021095691 -0.06250379 -0.038354333
0.06637198 -0.10544187 0.10080022 -0.099354066 -0.08395273 -0.07790935 -0.09249442 -0.06820485

conv3.0.weight f4 [32, 16, 3, 3]
00000000: b8d3 e1bb 7700 8e3d b523 b23c c6d2 bbbd
00000010: d794 afbd 0118 0cbc b568 983d 5010 963d
00000020: ca9e e73d f512 593c 9c1e 5abd 16ef 02be
00000030: 05e9 00bd eb39 fbbd 88ca 33bd aeac c0bc
00000040: 6d41 c93d 8663 fbbd c0ce 9abd b461 113e
00000050: fb2e 9ebd 09f9 d6bd 0854 913d 9192 edbc
00000060: 1202 53bd 45be 1c3c 6d8b b9bd c708 0fbe
00000070: dbc6 8ebd a738 cc3c e22f c3bd d636 d9bd
00000080: 7ecd 11bd d6eb 723c 3a28 923c 8a1e 5c3d
00000090: 9458 713d e75e 6bbd 5380 aebd c852 9abc
000000a0: 263d 1a3d 89e2 a6bb 7b8f 9d3d 1422 acbd
000000b0: 0365 8fbd 6f4e 9fbc 1110 9fbd 2b8d ff3c
000000c0: e63a 843c 54a5 3c3d cc97 1ebc 08f5 743b
000000d0: 6484 b13b 3135 a13d df5f 8ebc e623 21bd
000000e0: f60a 0d3d e928 19bd 33b6 3d3d 5d3c df3c
000000f0: b9af 123d 0e05 9e3c 6b5a d3bc cd4b 0e3e
00000100: 11bc 083d bda6 cebd 488b 813d 824c 683d
00000110: b002 e5bd 4f50 983d dd47 57bb 97ab cf3c
00000120: e33c 10bd cb0c 95bd 14b3 d5bd fac6 8ebd
00000130: d184 09be 45af febd d9bb 1fbd 75e5 95bd
00000140: fb80 a0bd 7b65 123d f148 d93d 0bba 0cbc
00000150: 095e d13d 997a 9f3c f78c 5e3b 5c96 623c
00000160: 001e b33d 1787 e83d c355 773c 09d5 323d
00000170: dd76 1d3e e393 84bd 6a34 673c 86eb 203d
00000180: 1c74 32bc ec53 93bd fbbb 493d 173e 873d
00000190: f113 083d c726 67bd 8b5c 043d f6ca 4f3c
000001a0: 3f41 dfbd 77b7 c7bc bd4f 18bd 665b b73d
000001b0: cbf7 3abb 3429 083e 731a a6bc b744 cd3d
000001c0: 2c53 713d 6c64 e23a 24a0 2cbd 8199 ecbc
000001d0: 12ad aabd 18f6 18bd 4b5f 90bc 7ca4 01bd
000001e0: 4762 6d3d 7464 1abd 734b e8bc 056a b3ba
000001f0: e29e 1ebd 9aab e83d 0269 7b3d 9385 b43c
00000200: c16d a7bd f353 ef3d 641d 223d 0f7c 03bd
00000210: 7398 18bd 9374 91bc a853 d33d 669a e0bc
00000220: dd52 67bd db17 45bd aabb 7f3d 97b8 74bd
00000230: bcfd c03c 9dd3 543d ab5e 763d 0fae 393d
00000240: ecd0 e5bd 70fb e33d 5ffd 01be beb8 bc3c
00000250: 228d c83c 6901 153c 9b53 293d 8060 b03d
00000260: 534c 1e3e 6f10 a3bc 915a adbd d4b7 373d
00000270: 7c2c 3cbc 3220 0abd 5049 8abd d9f9 a33c
00000280: a4c9 1dbc 394d 05be 3043 e8bd ae68 ebbd
00000290: b92b 353c f795 f7bb fa02 6fbd 3476 a53d
000002a0: 5137 ddbd c75c 70bc ba6f 413d b81f cd3c
000002b0: bcba c43d 2fc6 f53c 3dd1 253d 8d54 26bd
000002c0: 5eba 073d 3397 873d ada3 fd3b 3d72 423d
000002d0: 4932 bd3d 6569 d83c 6eb6 603c 1bd7 9abd
000002e0: 3d17 ed3c b067 56bd 454c 403c 4694 1e3d
000002f0: 64d7 b1bd 7286 4a3d bb02 80bd eae3 263d
00000300: 6549 0dbd f001 f7bc 4ff5 e5bc a2c8 973d
00000310: 1b14 c9bd ce4f eabd c955 663d 0e7e 7bbd
00000320: 7bb1 aabd 27d4 24bc b119 7e3d e60d 8c3c
00000330: 21eb 15bc b7f3 533d f793 f03d 098a 653d
00000340: a4c5 093d d8e3 ecbd 8e33 f33c 55ed b6bd
00000350: f672 cdbd 80a7 7c3c d8e7 d1bc 10a6 983d
00000360: 2b37 d3bc a789 46bd 2479 4a3d f10d e43d
00000370: 6a1f d9bd 1490 49bd 05c1 793d 1f6d d23b
00000380: 3648 8ebd f4a9 763c 813a 8abb 014d e53d
00000390: a974 57ba 1b15 2abd 7a70 a7bd 80bf b83c
000003a0: 57be 06bd 8d99 b9bd 2da0 41bd 4cc1 03be
000003b0: 9b8a 5cbd 516f 683d 4f6a 0fbd 1c37 9cbb
000003c0: ea83 ddbc f5d3 75bd e614 91bd 8bab 6b3d
000003d0: d3ae d13d 2892 c5bd dda8 8dbd 8900 25bd
000003e0: e7cf cc3d 4363 73bd 98f8 7b3d e24c db3d
000003f0: bdf4 043d 1610 283d a934 513d 8514 81bb
-0.006891694 0.069336824 0.021745542 -0.09171061 -0.08573311 -0.008550645 0.07441846 0.0732733
0.113095835 0.013249149 -0.053251848 -0.12786517 -0.031472225 -0.12266906 -0.04389432 -0.02351984
0.09826932 -0.12274842 -0.07558966 0.14197427 -0.077238046 -0.104967184 0.07096106 -0.029000552
-0.051515646 0.009566848 -0.090597965 -0.13968192 -0.069715224 0.024929358 -0.09530617 -0.10606162
-0.035596363 0.0148267355 0.017841447 0.05374006 0.058922365 -0.057463553 -0.0852057 -0.018838301
0.037655972 -0.005092923 0.07693382 -0.084049374 -0.07001688 -0.01944658 -0.07766736 0.031195244
0.016141366 0.046056107 -0.009679746 0.0037377495 0.0054173935 0.078714736 -0.0173797 -0.039340876
0.03443428 -0.03739253 0.046316337 0.027250463 0.035812113 0.01928952 -0.02579995 0.13896103
0.03338248 -0.100903966 0.06325394 0.05671359 -0.11182153 0.07437193 -0.003284923 0.025350375
-0.035214316 -0.07277831 -0.10434547 -0.069715455 -0.13429572 -0.12435774 -0.038997505 -0.07319156
-0.07837101 0.03574131 0.106096156 -0.008589278 0.10223014 0.019467639 0.0033958533 0.013829794
0.087459564 0.11353891 0.015096131 0.043660197 0.15377374 -0.0647352 0.014111618 0.039287113
-0.01089194 -0.07193741 0.049251538 0.066036396 0.033222143 -0.056433465 0.03231482 0.012682667
-0.109011166 -0.024379475 -0.03718542 0.0895298 -0.0028529044 0.13296968 -0.020276284 0.10022872
0.05891721 0.001727236 -0.04214491 -0.02888179 -0.08333792 -0.03734407 -0.017623564 -0.031651005
0.057955053 -0.037693456 -0.02835629 -0.0013688212 -0.03872574 0.113608554 0.06137944 0.02203635
-0.08175231 0.11685934 0.03957881 -0.032100733 -0.037254762 -0.017755782 0.103186905 -0.027417373
-0.05647551 -0.048118453 0.06243483 -0.05974635 0.02355849 0.051959623 0.060148876 0.04533201
-0.11221489 0.11131942 -0.1269431 0.02303731 0.02448136 0.0090945745 0.041339498 0.08612156
0.15458803 -0.019905297 -0.0846454 0.044853047 -0.011485215 -0.03372211 -0.067522645 0.020016598
-0.009630594 -0.1301774 -0.1134094 -0.114945754 0.011057788 -0.007555719 -0.058352448 0.08079186
-0.108015664 -0.014670557 0.04722569 0.025039539 0.09605929 0.030001728 0.04048275 -0.040607978
0.033136718 0.06620636 0.007740459 0.047472227 0.09238107 0.026417444 0.01371537 -0.07560559
0.028941745 -0.052344978 0.011736934 0.038715623 -0.086836606 0.049444623 -0.06250521 0.0407447
-0.034493823 -0.030152291 -0.028071074 0.074113145 -0.09818288 -0.11441003 0.056234155 -0.061399512
-0.08334633 -0.010060347 0.06203622 0.017096471 -0.009150297 0.051746096 0.11746972 0.056039844
0.03363575 -0.11566895 0.02968767 -0.08931986 -0.10031693 0.0154207945 -0.025623247 0.07453549
-0.025783142 -0.04847112 0.049431935 0.111354716 -0.10601695 -0.04920967 0.060975093 0.0064216997
-0.06947367 0.015055168 -0.0042184 0.11196328 -0.0008218983 -0.041524034 -0.0817575 0.022552252
-0.032896366 -0.090624906 -0.047271896 -0.12866706 -0.053843122 0.056746785 -0.035013493 -0.0047673117
-0.02704044 -0.06001659 -0.07084064 0.057536643 0.10238423 -0.09647018 -0.06916974 -0.040283713
0.10000592 -0.059420835 0.061516374 0.107080236 0.032459963 0.041030966 0.05107561 -0.0039392137

conv3.0.bias f4 [32]
00000000: 274b 33bd 1e3d 733b 6a6b 1cbd 8a2a 7dbc
00000010: eab8 9ebd af5a f73c 71ab 93bd 2034 c3bd
00000020: 87ee 84bd f252 803d be8d bfbd 0a4d 513d
00000030: da36 62bd d5e4 4bbb 503f bebd e053 7ebd
00000040: d4ba aabd c776 a2bc 9893 ed3c 997e 96bd
00000050: 9988 85bd 9421 9abd 0b9c 9fbb db06 1fbd
00000060: 9982 8f3c 9a22 8b3c 1279 9c3c 720c a43c
00000070: 7893 56bd 2361 b63a 9892 cabc c364 95bd
-0.043772843 0.0037115286 -0.038188376 -0.015452037 -0.07750113 0.030194608 -0.07210434 -0.095314264
-0.06490808 0.062658206 -0.09353207 0.05109886 -0.05522809 -0.0031111736 -0.0928942 -0.06209171
-0.08336416 -0.019832028 0.029001042 -0.07348365 -0.065201946 -0.07525936 -0.0048708967 -0.038824897
0.017518329 0.016984273 0.0191007 0.020025466 -0.05238673 0.0013914447 -0.024728104 -0.072946094

conv4.0.weight f4 [64, 32, 3, 3]
00000000: 8850 0dbd 1ac2 2cbd 9f72 933c dc48 8ebd
00000010: 4d3b 2f3d 779f 123d 881f bf3d 486c cabc
00000020: b123 813c 5423 d5bb c126 d03c c1dd 983c
00000030: d166 4ebd 4c59 793d b7a6 12bd 4541 85bb
00000040: d9fd 033c ad1f 5abd e908 ef3b 1d4b f73d
00000050: 636c 6cbd 0208 863d bd6f e53d 8215 bc3c
00000060: 4a03 0abd c7b7 ff3d 0427 d4ba 6cda 5e3d
00000070: e461 f6bb 027a 703d 96ab 37bb cce6 a6bd
00000080: 7023 acbd 336e 653d ec63 b93d 0a6b 0bbc
00000090: eaa7 4bbd 9bfc 033d 8d06 9d3d 1791 16bc
000000a0: a59f 43bd 3085 c23d 214e b7bc 75dd 2abb
000000b0: 1482 483d 2b66 103c cae8 b7bc a858 92bd
000000c0: 16ff 56bc 10cd 943c e27d c9bc 9d6e d03c
000000d0: e292 0fbc 3da4 3f3c 2710 193d 5ad5 3d3d
000000e0: 4777 503d 6b6d 2a3d 8cb0 0d3d f535 033d
000000f0: da62 c53b c50c f8bd eae5 04bd 55b6 51bd
00000100: 06a8 2c3d 5c1b 703d 5116 5cbd fe68 a43c
00000110: caa7 b7bc 5f75 12bd 68da 75bc 4914 66bc
00000120: b925 82bd 6e9a c5ba 9dd2 3abc aefa 793c
00000130: 04b3 dfbc a288 823d 7936 293d 63c1 d53d
00000140: 6772 0b3d be5d 6bbc 69a6 1fbd d7c7 bcbb
00000150: 8978 383c 63cd 323c 0560 813c f2f6 73bd
00000160: 10c9 9a3c 1ed7 a0bd 0112 f8bd 6db9 c43c
00000170: 2c7d 9dbb b3cf 1c3d 56bf 1a3d d8b3 6dbd
00000180: 0162 af3d 8e7a f1bc 9c64 d1bc ddc9 b5bd
00000190: 0c32 cdbc 3117 86bd 36c1 cbbd 868b 4b3d
000001a0: 1265 0d3c ef4f c63b 07b0 123d 1e13 213c
000001b0: 34fd a7bd 8bed 5abd 6784 c7bd 674d 45bd
000001c0: 2546 733d 72a9 763c 46b3 813c c6ff 863c
000001d0: 77b3 adbd 0602 babc 9d1e 18bc 3e58 f0bd
000001e0: 56c1 a3bd 3e24 e4bc 4ad2 4cbc d52c 8b3c
000001f0: f339 7abd d1f2 d9bb 10a0 25bb b90e 9cbc
00000200: ee0c 5c3d 6c9d a6bc 94c3 603b 6047 9ebd
00000210: 41c0 2c3d f080 8a3d 083a 97bd adc0 6c3c
00000220: 1e57 27bd d795 8cbd dd16 27bd 7cd4 7b3c
00000230: f6d0 3c3b 2e4b aabc c86b 6e3d 735c e9bb
00000240: df7a 653d 1dce e23c ee88 14bd cbb8 e5bc
00000250: 3a5b 97bd 3fcd 1a3d 5269 cc3d b3ad c8bb
00000260: a90e f0bc bf73 9b3c e320 493d 6be7 b73d
00000270: df22 433d d6d4 8e3d 183b 16bd 5d80 f33c
00000280: 2a47 4abc 3eca d93c 770f afbd 569a 10bc
00000290: 6c82 8b3c 1a08 9d3b c5cd 00bd 5a45 9dbb
000002a0: ede8 3b3d 74c7 6f3a 6aba bebb d276 aa3c
000002b0: 8d95 5e3d 5629 f23c 17b7 c6bc 41be b7bc
000002c0: 9e5b 4b3d 3dfa e3bc de4f b7bb f6d1 9dbc
000002d0: 2467 8f3c f349 8e3c ba9c 8e3d 05b9 bebd
000002e0: 163b c33c 6506 a93d f9ef a2bd 4e40 81bc
000002f0: a05c 4f3d 459d 84bd e6de 51bd 5ff3 433d
00000300: 626c 5c3c 5e42 043d 87c6 bb3c dca8 903d
00000310: aab2 a1bc 647b 283b f386 37bd 0798 48bd
00000320: bbb8 b2bc f6ca b6bc 623e 9fbd ddb5 973c
00000330: 4765 73bc 5848 65bd 8c94 63bd 32a2 e43a
00000340: fed9 523b aee2 4bbd 4243 68bd d182 cf3c
00000350: 0e7e 533c 49da dc3c 55dd 1fbd 2949 403d
00000360: 3025 03bd b2a2 36bd 0937 27bc 8b01 e8bc
00000370: c776 1dbd a3c3 06bc cc7c 05bb b910 a6bd
00000380: add6 8bbc 4240 023d 4ce3 96bd 4091 58bb
00000390: 8b8f 7c3c 7a01 f2bc 481c 313d b2df 44bc
000003a0: 3d06 80bd 9127 a0bd 70f1 0dbe f3fe a4bc
000003b0: 4eef 583c 5983 49bd 849a 8cbc 4b20 673c
000003c0: e870 6c3d 752b 0ebd 958c bebd f220 a13d
000003d0: 1daf 2e3c 02c9 73bd 7ba3 9d3d 62de 613d
000003e0: 0b31 03bd 4748 5b3c 24bb 25bc 7d4c 91bd
000003f0: 7817 3d3d 6781 8a3c 14dc 8bbd 9396 b7bb
-0.03450063 -0.042177297 0.017998992 -0.069474906 0.042781163 0.03579661 0.09332186 -0.024709836
0.01576409 -0.0065044556 0.025409104 0.018660428 -0.050391022 0.060876176 -0.035803523 -0.0040666186
0.0080561275 -0.053252865 0.0072947633 0.120748736 -0.057720553 0.06544496 0.11202953 0.022959474
-0.033694543 0.124862246 -0.0016185944 0.054407522 -0.0075189937 0.058710106 -0.0028025857 -0.0814949
-0.08405197 0.056013297 0.09052262 -0.008509407 -0.049720682 0.032223325 0.07667265 -0.009189866
-0.04775967 0.0949806 -0.022376122 -0.002607194 0.048952177 0.008813421 -0.02244987 -0.07145816
-0.013122341 0.018164188 -0.024596158 0.02544337 -0.008763047 0.011696872 0.03736892 0.046346046
0.050895 0.041608255 0.034592196 0.03203388 0.006023747 -0.121118106 -0.032445826 -0.051199276
0.042152427 0.058619842 -0.05373222 0.020069595 -0.022418875 -0.035756465 -0.015005685 -0.014042922
-0.06354851 -0.0015075931 -0.011402753 0.015257521 -0.027307041 0.06373717 0.041311715 0.10437276
0.03404465 -0.014365612 -0.03897706 -0.0057611275 0.011259207 0.010913226 0.015792856 -0.059561677
0.018894702 -0.0785353 -0.12112809 0.0240142 -0.0048061814 0.038284015 0.03778013 -0.05803284
0.08563615 -0.029477384 -0.02556067 -0.08876393 -0.025048278 -0.06547392 -0.099489614 0.049693607
0.008630054 0.0060520093 0.035812404 0.009831218 -0.082025915 -0.053449195 -0.097420506 -0.04816952
0.059393067 0.015055047 0.015832555 0.016479384 -0.08481496 -0.022706043 -0.0092846425 -0.11735581
-0.0799586 -0.027849313 -0.012501309 0.016989151 -0.06109042 -0.0066512604 -0.0025272407 -0.019049989
0.05372327 -0.020338736 0.003429626 -0.077284575 0.042175535 0.06762874 -0.073841155 0.014450234
-0.040854566 -0.06864517 -0.04079329 0.015370484 0.0028811074 -0.020787802 0.058208257 -0.0071216165
0.056025382 0.027686173 -0.0362634 -0.028042218 -0.07390447 0.037793394 0.09981026 -0.006124222
-0.029303866 0.01897609 0.04910363 0.08979686 0.047640678 0.06974189 -0.03667745 0.029724294
-0.012346068 0.026585694 -0.085478716 -0.008825859 0.017029963 0.0047922255 -0.031446237 -0.004799527
0.045876432 0.00091468473 -0.005820562 0.020808611 0.05434184 0.029560726 -0.024257226 -0.022429587
0.04964792 -0.027829284 -0.0055942377 -0.019265156 0.017505236 0.017369246 0.06963487 -0.093126334
0.023831885 0.08253173 -0.079559274 -0.015777733 0.050625443 -0.06475309 -0.051237963 0.04783952
0.013453575 0.032289855 0.022921814 0.07063457 -0.019738514 0.0025708312 -0.044806432 -0.04897311
-0.021816602 -0.022313576 -0.077755705 0.018519336 -0.014855689 -0.055977196 -0.055561587 0.0017443358
0.003217339 -0.049776725 -0.056704767 0.025330933 0.012908472 0.026959555 -0.039029438 0.04694477
-0.032017887 -0.044588752 -0.0102059925 -0.028321048 -0.038443353 -0.008225354 -0.0020368574 -0.08108658
-0.017070139 0.031799562 -0.07367572 -0.003304556 0.015415083 -0.02954172 0.04323986 -0.012016224
-0.0625119 -0.07820047 -0.13861632 -0.0201411 0.013240648 -0.04919753 -0.017163523 0.01410682
0.057724863 -0.034709413 -0.09304158 0.07867612 0.010661867 -0.059517868 0.07697197 0.05514372
-0.032029193 0.0133839315 -0.010115419 -0.07094667 0.04616496 0.016907407 -0.06829086 -0.0056026666

conv4.0.bias f4 [64]
00000000: 104c b23c 157b 593d 4300 45bd 3ec0 5ebc
00000010: 841c 1eba 027e 4cbd 2a9d a23c 9333 a0bb
00000020: d529 eebb 4c42 b53b e798 8f3c 5af8 99bd
00000030: ada0 653b 2dfd d8bc ed76 533d 4d41 833c
00000040: 74de 9a3c 999a e73a 1f3c 32bd fcb0 753c
00000050: 90ce 363d f13f ce3c 6f8a b5bc 495f 4cbd
00000060: 715f f43b ae3d d4bc 94da 113d 0318 2dbd
00000070: 1d49 7cbd 54a6 9bbc 5113 80bd a949 a73a
00000080: d12a 9abc bef2 17bd 7a84 4a3c c1d4 1b3c
00000090: 3ce8 5bbd f20d c83b 5799 84bc a055 213c
000000a0: 53ee c83b 6c7f 633d d90b 48bd 91c9 ecbc
000000b0: 7e5f a83c 8776 a5bc e4f1 fc3c 28d7 1c3d
000000c0: 0d64 aabc 3b3c 4e3c 3be6 8f3a 483c 613d
000000d0: a889 993c 0904 0c3d a2ce 62bc a452 acbd
000000e0: d555 b13c be3f 7dbc 839c 30bd 9403 0dbd
000000f0: bfa9 d7bc 9bc0 a83b dda7 29bd d292 50bc
0.021764785 0.053095896 -0.048095953 -0.013595639 -0.0006031471 -0.049924858 0.019850332 -0.0048889606
-0.0072681704 0.005531585 0.017528964 -0.075180724 0.0035038397 -0.026487911 0.05162709 0.016022349
0.018904902 0.0017669975 -0.043514367 0.01499581 0.044630587 0.025176974 -0.022160737 -0.04989556
0.0074576666 -0.025908317 0.035608843 -0.042259227 -0.061593164 -0.01900021 -0.06253684 0.0012763041
-0.018819245 -0.03709673 0.012360686 0.009511174 -0.053688273 0.006105178 -0.0161864 0.009847075
0.006131926 0.05554144 -0.048839424 -0.028904708 0.020553347 -0.02019812 0.030877061 0.038291126
-0.020799661 0.012587602 0.0010978648 0.05498913 0.018742397 0.034183536 -0.01384321 -0.084142
0.021647373 -0.015457092 -0.04311801 -0.03442724 -0.026326058 0.0051499135 -0.041419853 -0.012730317

fc.weight f4 [1, 64]
00000000: fcd8 41be 2261 85be 29ac 343e bbe8 333e
00000010: e013 08be a295 603e 82af fdbd 62bd 163e
00000020: d23c d23d d22a b3bc 03c0 0bbe 9845 153e
00000030: fa31 cabd 13e2 943e 8848 1b3e c577 103e
00000040: b8d4 093e 4431 47be 1bb6 213e ea91 f93d
00000050: b833 ab3d bf6a ff3d b36f 263e c99d 82be
00000060: 0308 04be fbde 413e 936b 7c3d 191c 2ebe
00000070: 3510 a4bd b099 1ebe 858d e0bd 8511 03be
00000080: cdef 803e 8ce6 173e e05d 3dbe dd3c d23d
00000090: f50d 583e 7f6a 3cbe b19a 3a3e 2528 a2bd
000000a0: 59f7 1abe 4b4e 303e 304f bb3d df31 1e3e
000000b0: a90d c93d 14d4 67be da3f b2bd 147d 133e
000000c0: d1ee 80be a018 3a3e 4721 62be e0f6 163e
000000d0: 87f9 3f3e a8f9 443e a4a8 ccbd c676 07bd
000000e0: ecd2 45be 9dba 7a3e 1517 033e f9b7 ee3d
000000f0: 36b8 fe3d 737b 90be 5b34 603e 8b65 453e
-0.18930429 -0.2605067 0.17643799 0.17569248 -0.13288832 0.2193208 -0.12386991 0.14720681
0.10265507 -0.021871004 -0.13647465 0.14577329 -0.098728135 0.2907873 0.15164387 0.14108188
0.13460052 -0.19452387 0.15792124 0.12186034 0.08359474 0.12471532 0.16253547 -0.25511006
-0.12893681 0.18932717 0.06162603 -0.17002906 -0.08010904 -0.15488315 -0.10964493 -0.12799652
0.25182953 0.1483404 -0.18492842 0.10265515 0.21099074 -0.184 0.18223073 -0.07917813
-0.15133418 0.17217366 0.09145963 0.15448712 0.098170586 -0.22639495 -0.08703585 0.14403182
-0.25182202 0.18173456 -0.22083007 0.14742613 0.18747531 0.19235861 -0.09993103 -0.033072256
-0.19318742 0.2448525 0.12801774 0.11656184 0.12437479 -0.28219184 0.21894972 0.19277017
