api/50.pth (torch_old, 100153 bytes, 9 tensors)

conv1.0.weight f4 [8, 3, 3, 3]
000000 fd a8 90 3e 32 66 a2 bc 85 b1 6f be 0f f1 98 3d
       0.28253928 -0.019824121 -0.23407562 0.07467853
000010 02 b3 9d 3d 8f b3 25 be 31 3c b7 3e 23 60 46 bd
       0.07700159 -0.16181777 0.3578811 -0.048431527
000020 96 fe 77 be 07 f1 1d 3e 3e 28 93 bc e0 92 35 be
       -0.2421821 0.15423976 -0.017963525 -0.1773181
000030 f6 ab 02 3e 56 3b ef 3d ca b9 41 3e c0 ce 53 be
       0.1276091 0.11681239 0.18918529 -0.20684338
000040 8b db 7c be 62 35 ad 3d 6f c7 6b 3d 31 f8 58 bd
       -0.24693124 0.084574476 0.05756324 -0.05297107
000050 13 76 8e be 8c 22 1e bd ba 8b 9d 3d f3 5e 13 3e
       -0.27824458 -0.038607165 0.07692666 0.14391689
000060 79 dd 50 3e a4 9e 50 bd 4f d1 00 be 46 5d c4 bb
       0.20396985 -0.05093254 -0.12579845 -0.0059925644
000070 6e 3e d1 bd 4d 2a bd 3d cd d2 16 3e 43 92 1b 3e
       -0.10216986 0.09236584 0.14728852 0.15192513
000080 53 73 2f bd 5c f8 21 3e 55 c3 51 3c b1 dc 37 3d
       -0.04283459 0.15817398 0.012802918 0.044888202
000090 6d 26 59 3e f1 b5 08 be 30 56 4d bd a9 92 f3 3b
       0.21206065 -0.13350655 -0.050131023 0.0074332547
0000a0 3d 8b 35 bd e2 25 4f 3e bf ba 9a 3d c9 78 5a 3e
       -0.04432224 0.20229295 0.0755515 0.21335138
0000b0 64 78 88 bc ed 30 1e 3c d8 9e 16 3e a2 dc 48 bd
       -0.01665897 0.0096552195 0.14709032 -0.049038537
0000c0 30 51 44 3e d5 10 b0 bb 0c 7c 0f be 79 04 8a bd
       0.19171596 -0.0053731003 -0.14012164 -0.06739134
0000d0 d4 bb 82 bd 0b 89 1f bd 03 f4 39 be be c4 74 be
       -0.063834816 -0.038949054 -0.1815949 -0.23903176
0000e0 c5 0e e5 bd ba 42 37 3d 2c c7 b5 bd 85 ee 75 bd
       -0.11184458 0.04474137 -0.0887588 -0.060041923
0000f0 80 bd 56 be f7 c2 11 bd 83 4d 0f be b9 5a 5a 3e
       -0.20970726 -0.035586324 -0.13994412 0.2132367
000100 5f 59 d1 3d 60 da 05 3e 97 31 58 3d 70 d5 06 be
       0.10222124 0.13071585 0.052781668 -0.13167357
000110 76 a5 98 3e 5d da 21 3d 07 a1 b9 bd 9e 1b 3c 3e
       0.29813737 0.039514888 -0.09063917 0.1836991
000120 bc 18 cd 3c 0e 3e d8 3d 76 57 e9 3d 03 b5 20 3e
       0.025036208 0.10558711 0.11393635 0.1569405
000130 c7 58 73 be ec 46 98 3e e7 4c 0d be c2 3c 65 3d
       -0.23764335 0.2974161 -0.13798867 0.055966146
000140 f3 26 1f 3c 94 8c 85 be 1c f2 96 be 83 86 b1 3d
       0.009713876 -0.26083815 -0.2948159 0.08668234
000150 43 38 5e bd 8b c2 40 be 94 3e 01 be 02 09 23 3e
       -0.054252874 -0.18824212 -0.12621528 0.15921405
000160 ab f4 39 3d 52 81 88 be e3 8f 50 be 52 4c 42 3e
       0.04539935 -0.26661164 -0.20367388 0.18974426
000170 dd a9 bc 3d e5 36 bf 3c ee b7 b3 3d 6b 79 87 bd
       0.09212086 0.023341605 0.08775316 -0.066149555
000180 40 c8 62 3e 6e d2 05 3e bf 44 63 3c be 35 c3 bb
       0.22146702 0.13068554 0.013871371 -0.0059573343
000190 f0 69 2a be c2 11 76 3c 0a 41 04 3e fa 26 cb bd
       -0.16641974 0.015018882 0.12915435 -0.099195436
0001a0 3e a2 5f be 5d 37 3c 3e 2e 39 61 bd c6 ae 95 3c
       -0.21839234 0.18380494 -0.05498617 0.018271815
0001b0 18 16 3a 3e d4 8a 3f be 82 1e 77 be cb 48 1c be
       0.1817249 -0.18705302 -0.24132732 -0.15262143
0001c0 c0 b5 9e bd f5 15 3e bd 76 1c 83 3c b9 ca 9f bd
       -0.0774951 -0.04640766 0.016004782 -0.07802338
0001d0 7f 71 2b 3e e9 86 60 be 02 18 2f be 4d 62 6f 3e
       0.16742514 -0.21926464 -0.17099002 0.23377343
0001e0 4f 8e 3c be df 56 e7 bc bf 6c 14 3e 36 bd 9c bd
       -0.18413661 -0.028239666 0.14494608 -0.076532766
0001f0 6e c0 75 3e 72 7b ad 3e 37 ec ea bd 11 64 f2 3c
       0.23999187 0.33883244 -0.11470836 0.029588731
000200 01 d9 0e 3e b6 15 62 bd 36 71 36 be 50 de 11 3e
       0.13949968 -0.055196486 -0.17816624 0.14244962
000210 71 dd 44 be 88 ed 11 3e f2 88 79 3e 0e ce 79 3d
       -0.19225098 0.14250767 0.24368647 0.060987525
000220 8e 88 01 3d a3 65 95 3e dc b1 ab 3d 26 84 24 bc
       0.03162437 0.29179105 0.08383533 -0.010041272
000230 9b 21 19 3e 87 2d cd 3d 50 7d a9 3d c5 42 f4 3b
       0.14954226 0.10018449 0.082758546 0.0074542486
000240 a2 6b d3 b8 4a 39 c5 bd 19 12 ba bd 7c e2 d3 3d
       -0.00010081312 -0.09630068 -0.09085483 0.10345933
000250 bd 6a 6d be ea 67 f4 bd 66 37 f2 bd 07 ff 6d be
       -0.23185249 -0.119338825 -0.11826973 -0.23241816
000260 aa b5 75 be cd 31 2b bd 28 95 1e be 25 e1 2f bc
       -0.2399508 -0.04179554 -0.15486586 -0.010734831
000270 40 04 09 3e b5 1c 56 3d aa 3a 2d 3e c9 74 6d bd
       0.13380527 0.05227347 0.1691691 -0.057972703
000280 ab e8 a3 3c 0d b3 c0 bd 93 ee c1 3e ce 72 90 bd
       0.020008406 -0.09409151 0.3787733 -0.07053147
000290 14 70 82 be fb d5 2a 3d e7 c1 55 be 1d 70 d0 3d
       -0.25476134 0.041707974 -0.20874749 0.10177634
0002a0 41 7c 4a 3e e3 4f c7 bd 25 3b 3a 3e 03 eb 0f 3d
       0.19773962 -0.09732034 0.18186624 0.035136234
0002b0 73 86 5b be d0 1b 45 be cd a3 96 3e 3b 3d 39 be
       -0.21438007 -0.19248891 0.29421845 -0.18089764
0002c0 84 94 f7 bd a7 d1 39 3e 93 2c 19 bd 78 5d c9 3c
       -0.12088874 0.18146382 -0.037396025 0.024580702
0002d0 dd 36 83 3d 5f f5 dd 3c 9c 51 96 be c0 d9 6d 3e
       0.06406949 0.027094541 -0.29359138 0.23227596
0002e0 c5 f5 4d 3c a8 16 cb bd 54 2c 11 bd 3b 5a 3c be
       0.012570803 -0.09916431 -0.035442665 -0.18393795
0002f0 91 81 8f bc a5 d2 0c 3f 55 42 8f 3e 12 3a 89 be
       -0.017517837 0.5500892 0.27980295 -0.26802117
000300 25 ce 2a 3f 11 9e e5 3e 8a 55 aa bd ef 8b 07 3f
       0.667208 0.44847158 -0.083170965 0.52947897
000310 b4 d6 d2 3e 05 97 51 be d1 01 85 be 3c 21 45 be
       0.4117943 -0.20467766 -0.25977948 -0.19250959
000320 78 b8 38 3d 85 4a be bd 94 86 40 3d ca 46 bd bd
       0.045097798 -0.09291557 0.047003344 -0.092420176
000330 f6 c0 a1 3d 17 08 33 bd 2e c8 de 3c 07 13 61 3d
       0.078981325 -0.043708887 0.027195062 0.054949787
000340 08 6f 63 bd 31 28 a4 bd f6 a4 93 bd 69 8e 08 3e
       -0.05552581 -0.080154784 -0.07209198 0.13335575
000350 6c aa 88 be b6 dd 3a 3e 56 8b 00 be 58 22 95 bb
       -0.26692522 0.18248639 -0.12553152 -0.0045512132

conv1.0.bias f4 [8]
000000 81 95 e2 3d d7 16 cc bd b1 d1 85 3e 2d ff d4 bd
       0.11063672 -0.09965294 0.26136544 -0.104002334
000010 f3 56 7e 3e 53 59 40 3e ff bb 24 3d 9b 9c 96 3c
       0.24837856 0.18784074 0.04021835 0.018385222

conv2.0.weight f4 [16, 8, 3, 3]
000000 c1 61 22 3e 10 0a 0f be 73 06 6f bd 71 57 6a 3d
       0.15857603 -0.13968682 -0.05835576 0.057212297
000010 72 d9 95 3d 60 2a ab 3d 07 73 7d bd b3 6f ae 3d
       0.07316865 0.08357692 -0.061877277 0.08517399
000020 1c 1e bf 3c e0 61 b4 3d cb 3e 1e 3d 3f ed 80 3c
       0.023329787 0.08807731 0.038634103 0.015738128
000030 5f 82 dd 3d 9f 1e b6 3b 3e 87 9f 3d 46 b3 92 bd
       0.10815882 0.0055578495 0.07789467 -0.071631
000040 e5 22 04 ba a0 9c 9d bd 61 43 b8 3e 98 f4 1d 3d
       -0.00050406 -0.076958895 0.35988906 0.03856334
000050 8a fb f8 bc 2d 14 9d 3e 01 15 ca 3e 50 6c 8f 3e
       -0.03039338 0.30679455 0.3946915 0.28012323
000060 c3 57 aa 3e 88 3e d2 3d 7a 29 b7 3d a6 82 b5 3d
       0.33270082 0.10265833 0.08943458 0.0886281
000070 8b 6b 25 3d e5 3c 68 3e 24 e0 dc 3c 7e 4c b2 bd
       0.040385764 0.2267948 0.026962347 -0.08705996
000080 6d d6 0b 3e 34 d7 18 3d 44 98 fc 3d 54 c5 cc 3d
       0.13656016 0.03731461 0.1233373 0.09998575
000090 d4 11 6b 3e 3b 25 96 3c 5f b9 03 3e 8d 09 75 3e
       0.2295602 0.0183283 0.12863682 0.23929425
0000a0 ef 69 94 bc 0b 69 89 bc 6c e0 aa 3c 17 fc a3 be
       -0.01811692 -0.016773721 0.020858966 -0.32028267
0000b0 4e 7f 77 3d 5f 41 93 bd 55 e1 1e be 23 e8 a4 bd
       0.06042414 -0.07190203 -0.15515645 -0.08052089
0000c0 2d 12 81 be df 79 42 bd 46 e9 ef 3b 87 d9 5f be
       -0.2520918 -0.047479507 0.0073215095 -0.21860324
0000d0 75 34 67 3d 8b 69 a1 bc 99 21 37 bd 3c 43 4e 3e
       0.05644651 -0.019703647 -0.044709776 0.20142835
0000e0 05 74 23 be ea 1f bc 3c 9d 14 72 bd bd 78 70 ba
       -0.15962227 0.022964437 -0.05910169 -0.0009173265
0000f0 e8 5d f0 bd 54 02 79 3d 9b cf 43 bd 68 08 2a be
       -0.11736661 0.060793236 -0.04780541 -0.16604769
000100 81 63 25 be 61 e7 dd 3d 92 72 dc bd 66 90 40 be
       -0.16151239 0.10835148 -0.1076404 -0.18805084
000110 6b 75 0b 3e 40 09 c4 bd 9d 22 84 bd 31 02 b1 3c
       0.1361901 -0.09572077 -0.064519145 0.02160749
000120 81 c3 a3 bd 58 c1 4c be 98 ea ca 3c c9 74 2a bb
       -0.07996274 -0.1999563 0.024770066 -0.002600955
000130 d8 bd 75 bd dc 5e 1f be bc 95 95 bd d2 23 ed 3d
       -0.059995502 -0.1556353 -0.0730395 0.11579098
000140 44 d2 02 3d 97 bf c7 3d 45 5d 6f bd d9 a6 a7 bd
       0.031938806 0.0975334 -0.058438558 -0.081861205
000150 8e 67 4e 3d e6 49 3f bd 10 ae 9a bc 24 07 f7 3c
       0.050391726 -0.046701334 -0.018881828 0.030154772
000160 d2 08 e8 bd 70 8a e5 3d 1f da d8 3d dc 33 8d 3d
       -0.11329807 0.112080455 0.10588478 0.06894657
000170 05 79 d8 bd ca 96 f9 bc 03 c9 87 3e 28 62 6e bd
       -0.10569958 -0.03046741 0.26520547 -0.058199078
000180 19 87 18 3e b3 7d 39 3e 4a 74 b5 3d 0d 53 ce bc
       0.14895286 0.18114357 0.08860071 -0.025186086
000190 df f9 32 bd 39 a1 93 bd a9 a8 04 3d b3 34 03 3e
       -0.043695327 -0.07208485 0.03238741 0.12813072
0001a0 88 86 88 bc f6 b6 13 3d a6 8e 4b 3e 1c e8 8f bd
       -0.016665712 0.036063157 0.19878635 -0.07026693
0001b0 50 ae 19 3e a4 68 be bd d4 53 5e bd 34 c9 70 3d
       0.15007901 -0.09297302 -0.054279163 0.058785632
0001c0 a3 ae b5 3c 85 9b 30 be 33 64 83 3e ee ef 87 3d
       0.022178 -0.17246826 0.25662383 0.0663756
0001d0 29 2f 2d be b8 01 19 be bf 3e 09 be 41 26 a0 bc
       -0.16912521 -0.14942062 -0.13402842 -0.01954949
0001e0 f8 d0 29 be cd 14 ce bd 7f 0d d7 3d cd 52 40 be
       -0.16583622 -0.10062561 0.10500621 -0.18781586
0001f0 dd 26 25 be da bb 3b bd 88 1e ea bc fe 55 05 3d
       -0.16128106 -0.045833446 -0.028579012 0.03255271
000200 3b bd e9 3d c9 6d 4c be 51 c4 31 bd 3d 77 b9 bd
       0.11413046 -0.19963755 -0.043400113 -0.09055946
000210 d0 17 e3 bc 20 4e 12 3d 7a 79 5b bd 7e 9d 0c be
       -0.027721316 0.035719037 -0.053582646 -0.13731954
000220 79 3c 02 3e 59 6b 69 bd 29 82 0b 3d fb 71 72 be
       0.12718381 -0.05698714 0.034059677 -0.23676293
000230 be 91 1c 3c 71 f2 3b 3d cb c8 59 3d 5a db c9 3d
       0.009556232 0.045885507 0.053170007 0.09856291
000240 50 86 9e 3e f8 13 4a bd b6 de 80 bd 74 be 4e 3e
       0.30961847 -0.04933545 -0.06292479 0.2018984
000250 a0 c6 73 ba 75 55 fa bd 6f 69 00 3e ea 41 12 3e
       -0.0009299312 -0.12223331 0.1254022 0.14282957
000260 6e 44 2f bc 78 c1 de 3d 08 2f 9f bd 18 0a e8 bd
       -0.010697467 0.10876745 -0.077726424 -0.1133005
000270 bb 5f 45 3c 01 96 a2 3d bc 89 ad bd 88 f8 c7 3d
       0.01204675 0.07938767 -0.08473536 0.097642004
000280 64 04 f3 3d c2 fb a0 3d 9e d7 9a 3a 93 b5 fa 3d
       0.11866072 0.07860519 0.0011813527 0.12241664
000290 8e 85 45 bd ba 9e 1d 3b cd 38 f6 3d 26 df 2e be
       -0.04822307 0.0024050907 0.12022553 -0.17077312
0002a0 d2 3f 79 3d a4 52 52 3e 8f cb 2a 3e 31 4a da 3d
       0.06085188 0.20539337 0.16679214 0.10658682
0002b0 3a c3 9b bc 91 2d 06 3c 7d b2 e5 3a f0 da 09 3e
       -0.01901399 0.008189575 0.0017524507 0.13462424
0002c0 4a a8 f2 bd 5f 5e 80 3c fb 2d be 3d e1 0f 31 be
       -0.11848505 0.01567 0.09286114 -0.17291214
0002d0 d6 56 b9 3c 31 0c fa 3d a3 27 6c be 34 ad 8f 3d
       0.022624414 0.122093566 -0.23061995 0.07015458
0002e0 f0 b7 04 3d 8f c1 6d be f0 8c a1 3d 9f 85 12 3e
       0.03240198 -0.23218368 0.0788821 0.14308785
0002f0 ef 2e 24 be cb db e2 3d 97 34 44 be c4 87 f5 bb
       -0.16033529 0.110770784 -0.19160686 -0.007492991
000300 d5 da 03 bd 12 db 2d be d8 c6 95 bd ad f0 8b bd
       -0.032191116 -0.169781 -0.07313317 -0.06833015
000310 60 69 82 be 7e b1 c0 bd 42 75 b7 bc df a2 32 3d
       -0.2547102 -0.09408854 -0.02239478 0.043612357
000320 79 c8 0e bd ea b3 62 3d d1 2f e2 3d 95 c5 bd 3d
       -0.034859154 0.05534736 0.110442765 0.092662014
000330 fd 64 cd 3d 36 d0 f1 3d 68 3c 64 bd c8 80 a4 3e
       0.100290276 0.11807291 -0.05572167 0.32129502
000340 c2 65 44 bd da c0 a2 be 5f 28 34 3e cb a2 c9 bd
       -0.047948606 -0.3178776 0.17593525 -0.098455034
000350 61 2f 24 bd f4 0c 89 3e 4a 4b 82 bd 6c 44 4a be
       -0.040084247 0.26767695 -0.063620165 -0.19752663
000360 d6 de 2d be b1 4c 32 bd 3b 98 82 3c 44 7e fc 3c
       -0.16979536 -0.04353017 0.01594173 0.030821927
000370 7f d2 d5 3d ad 63 bf bd 9a be b4 3c a0 f7 cf 3d
       0.104405396 -0.093451835 0.022063542 0.101546526
000380 a3 a8 59 bd c2 70 b4 bd e3 de 22 3d a2 eb 8d bd
       -0.05313934 -0.08810569 0.039763343 -0.06929709
000390 8d 0e 63 3d 52 c6 09 bb 29 6d c6 3d 5a f0 ad 3d
       0.0554338 -0.002102275 0.096887894 0.08493109
0003a0 8f 31 a0 bb 4d db c7 bc 0b 1d 9a 3d bc 8f 60 3e
       -0.0048887203 -0.024396563 0.07525071 0.2192983
0003b0 40 e2 42 3e 8c ac 4c 3e b7 a6 d2 3d 5e 38 95 3e
       0.1903162 0.19987696 0.102857046 0.29144567
0003c0 61 6d c0 bd ac 5a 34 bc 3a c1 b2 3d bc e7 20 bc
       -0.09395862 -0.011007946 0.08728261 -0.009820875
0003d0 47 73 0f 3e fb d5 f9 bd a4 8b 15 3e d3 12 47 bd
       0.14008819 -0.12199017 0.1460405 -0.048601937
0003e0 9e 12 c0 bc 4c e3 4e 3e 7e 87 42 bd 9b 7f 77 be
       -0.023446377 0.20203894 -0.047492497 -0.24169771
0003f0 ca b2 5c 3e e9 a6 37 3e 6e 52 21 be 03 02 67 bd
       0.21552578 0.17934765 -0.157541 -0.056398403

conv2.0.bias f4 [16]
000000 44 c1 8f bd ee c3 ae 3d a3 ee f2 bd 9d da aa 3d
       -0.07019284 0.08533464 -0.118619226 0.083424784
000010 6a a4 66 bd d0 a6 96 3d 00 2a 99 bd b2 bd 01 bd
       -0.05630914 0.07356036 -0.07478714 -0.03167505
000020 88 33 a0 3d f5 cf fb bd ba cb f9 3d 39 7b f2 bd
       0.07822329 -0.12295524 0.12197061 -0.11839909
000030 0f 7a dd bd 2e 7c bd bd b9 26 f1 bd 43 55 a3 bd
       -0.108142965 -0.09252201 -0.11774964 -0.07975247

conv3.0.weight f4 [32, 16, 3, 3]
000000 8a 32 2c 3c d6 95 dc 3d 7e 08 20 3d 8f 38 ef bd
       0.010510096 0.107707664 0.0390706 -0.116807096
000010 34 57 92 bd f6 40 87 bc 14 fa b4 3d f7 93 9e 3d
       -0.07145539 -0.016510468 0.08836761 0.07743066
000020 3c 63 09 3e 03 0f d1 3c bc b2 35 be a6 a0 1d be
       0.13416761 0.025519853 -0.17743963 -0.15393314
000030 9d 75 71 3c 71 a6 72 be df f4 d3 bc 9a 73 03 bd
       0.014737514 -0.23696305 -0.0258736 -0.032092668
000040 45 9f 2f 3e 6f ce e4 bd 24 f2 d0 bd 68 dc 35 3e
       0.171506 -0.111721866 -0.10202435 0.1775986
000050 9d 32 eb bd 25 d5 1c be 76 e2 a4 3d 51 d2 1b bd
       -0.11484263 -0.15315683 0.080510065 -0.03804237
000060 0a ad 9a bd ae 41 02 3d 95 b4 c3 bd 22 aa 6c be
       -0.07552536 0.03180092 -0.09555928 -0.23111776
000070 fb 71 98 bd 92 11 4f 3d d6 f2 07 be 53 1f e2 bd
       -0.07443615 0.050553866 -0.13276228 -0.11041131
000080 5c a2 a9 bd 7d d0 b7 3c 13 15 46 3d f4 fe 0f 3d
       -0.08282921 0.022438282 0.04835994 0.03515525
000090 17 eb 9d 3d 0b 09 b2 bd 5e 73 df bd c4 eb 7d bc
       0.077108555 -0.08693131 -0.109106764 -0.015498105
0000a0 0b 26 11 3d 6b 6c d0 3c cc 25 9f 3d 2c 50 f8 bd
       0.03543667 0.025442323 0.07770881 -0.121246666
0000b0 88 cb 8e bd c1 58 8d bc dc 29 d7 bd 48 c0 1f 3d
       -0.06972414 -0.017254235 -0.10506031 0.039001733
0000c0 88 cf 1a 3d 21 ea 44 3d 65 34 92 3c 39 f9 ab 3b
       0.037795573 0.048074845 0.01784725 0.0052482155
0000d0 2b b4 10 bc 7d 7c 89 3d f9 c5 25 bd be 42 5b bd
       -0.008832018 0.067131974 -0.040472005 -0.053530447
0000e0 93 15 84 3d 31 05 87 bd ba 52 dd 3c 29 a5 41 3a
       0.064494275 -0.06592787 0.027016986 0.00073869765
0000f0 51 31 fb 3c 26 d9 6a 3b c3 a8 e5 bc 31 fc 36 3e
       0.030663164 0.0035834997 -0.028034573 0.17869641
000100 1d 1f 8a 3c 5e 4e fc bd 7f 5a 2d 3d a8 7f 71 3d
       0.01686054 -0.12319635 0.042322632 0.058959633
000110 d8 f2 09 be b2 97 61 3d e6 d5 8d bc f9 1d de 3c
       -0.13471544 0.05507631 -0.017313909 0.027113901
000120 af 82 9d bd 05 1f 9f bd 10 14 a2 bd 0b 52 4c bd
       -0.076909415 -0.077695884 -0.07913983 -0.04988293
000130 a7 1f 2c be 88 71 17 be 24 f3 38 bd d4 5f 63 bd
       -0.1680895 -0.14789402 -0.045153752 -0.05551131
000140 bf b7 be bd f5 09 e8 3d 7a e1 16 3e 6a 2a 9f bd
       -0.093123905 0.11330024 0.1473445 -0.07771762
000150 4d 49 16 3e 6b 69 9f 3c 22 1c cf 3c a9 ff 60 3d
       0.146764 0.019459447 0.02528197 0.054931317
000160 8a 79 02 3e ce 2a 37 3e 9d b6 89 3d 10 ad a0 3b
       0.12741676 0.17887422 0.06724284 0.004903443
000170 99 1a 35 3e b2 94 4f be e8 bb 13 3d 9d 90 4e 3d
       0.17685927 -0.20271567 0.036067873 0.050430883
000180 e0 85 98 bb a6 f3 70 bd fa 8f d8 bb 18 18 a9 3d
       -0.004654631 -0.05882611 -0.00660896 0.08256549
000190 cd ca aa 3d 39 2b bd bd 4a 7b 12 3b d7 cd a9 bc
       0.083394624 -0.0923676 0.0022351318 -0.020728035
0001a0 19 0f 23 be 9f 83 80 bd 74 91 cf bd ba e8 ea 3d
       -0.15923728 -0.06275105 -0.10135165 0.1147017
0001b0 93 18 52 3d 51 ae 1a 3e 40 d2 6e bd a8 a9 04 3e
       0.051292967 0.15105559 -0.05830598 0.12955344
0001c0 14 eb 67 3d c2 0f 19 bd f3 68 eb bd c9 48 cb bc
       0.056620672 -0.037368543 -0.11494627 -0.02481498
0001d0 85 7a d1 bd 8e 39 c5 3c a4 af ff bc e4 3c c9 bd
       -0.10228447 0.024075296 -0.031211682 -0.09826067
0001e0 f5 f8 4b 3d 54 f3 64 bd 50 b4 57 bd 16 3f 9c 3c
       0.04979797 -0.05589612 -0.052662194 0.01907305
0001f0 2d 36 ba bd 98 87 32 3e 2f 6a df 3d ee 8a c3 3c
       -0.090923645 0.17434537 0.10908925 0.023869958
000200 22 48 3c be cc ce 15 3e a8 80 01 3d 30 41 14 bd
       -0.18386891 0.14629668 0.031616837 -0.03619498
000210 f5 b1 04 be d8 a8 7a b9 21 d3 39 3e 0a 1e af bc
       -0.1295851 -0.00023904757 0.18146946 -0.021376628
000220 cf 8a f1 bd 24 33 67 bd b3 8f 20 3e ec c0 95 bd
       -0.11794054 -0.056445256 0.15679817 -0.073121876
000230 1e 9b 9a 3d 6a 79 0c 3e ad 3b 97 3d ec a4 bb 3d
       0.075491175 0.13718191 0.07384429 0.09162316
000240 21 f1 1f be 05 48 01 3e 2f c7 47 be 3f 6f d4 3c
       -0.15619327 0.1262513 -0.19509576 0.025931953
000250 0c 11 fb 3a 1d 0b 91 bb 94 28 0a 3d a4 87 9b 3d
       0.0019154861 -0.0044263736 0.033730105 0.07594231
000260 54 68 50 3e a3 c2 54 bd 83 9f f5 bd ca 58 23 3d
       0.20352298 -0.051943433 -0.11993315 0.039879598
000270 ef 9e 92 3d a6 e5 2f bd cd b6 c1 bd 81 b4 98 3d
       0.071592204 -0.04294362 -0.094586946 0.074563034
000280 15 74 20 3d 0f 22 1c be e1 9d 0f be 69 d2 15 be
       0.039173204 -0.15247367 -0.1402507 -0.14631046
000290 4a b6 85 3c 88 4b 43 3c 0b 7c ba bc bc 7f 69 3d
       0.016322274 0.0119198635 -0.022764226 0.057006583
0002a0 95 04 f8 bd ac 2a 4d 3c 40 93 b8 3c c4 b0 37 bc
       -0.12110249 0.012522381 0.022531152 -0.011211578
0002b0 93 a6 8e 3d 9b 86 6c bb d6 8f d2 3d e5 5a 09 bd
       0.06965365 -0.0036090973 0.10281341 -0.03353395
0002c0 8d e3 3d 3d 68 77 d5 3d bd 43 9e bc 19 e9 cc 3d
       0.046359587 0.104231656 -0.01931941 0.10005397
0002d0 93 d3 95 3d 11 c1 9f 3d 28 a5 13 3d e1 9f e9 bd
       0.07315745 0.07800496 0.036046177 -0.114074476
0002e0 8d 13 35 3d 49 39 4a bd 4a be 51 3c b6 d8 69 3d
       0.0442081 -0.049371038 0.012801716 0.057091437
0002f0 50 02 35 be 6b ed 86 3d ac 6c 1e bc a9 02 26 3d
       -0.17676663 0.06588253 -0.009669464 0.04052988
000300 89 1f 91 bd 8d 40 df bc 64 e7 5c bd 32 f4 aa 3d
       -0.07086093 -0.02725246 -0.05393161 0.08347358
000310 27 87 13 be 91 d0 c1 bd 87 6c 35 3d 0c 06 a7 bd
       -0.14407025 -0.09463609 0.044292953 -0.0815545
000320 3d ad ce bd 54 81 42 3b 1a 39 2f 3d 1c 79 fb 3b
       -0.10091636 0.0029679136 0.042779066 0.0076743495
000330 81 ba 11 bc aa 70 a1 3d 2a d3 23 3e 4f 0d 85 3d
       -0.008894564 0.07882817 0.15998521 0.06496679
000340 ff f1 82 3d c1 3e a5 bd ac 68 fa 3c 0e 4d d5 bd
       0.06393813 -0.0806861 0.03056749 -0.10415088
000350 ac 9b 33 be 9d 99 ea bb 05 0c ec bc 43 14 e5 3d
       -0.17539853 -0.0071594254 -0.028814325 0.11185505
000360 98 ef b5 bc 3f 63 af bd f4 35 6b 3d 7d fe 21 3e
       -0.022208974 -0.085638516 0.0574245 0.15819736
000370 35 73 15 be 0c da 33 bd 4b c1 54 3d f0 77 11 3d
       -0.14594729 -0.043909118 0.05194215 0.035514772
000380 61 92 a3 bd 6f b7 41 bd 99 c4 7c ba 74 43 0d 3e
       -0.07986904 -0.047294077 -0.00096423324 0.13795263
000390 14 d4 1a 3c b9 fc 62 bd a9 cd ad bd 8e da b8 3c
       0.009449977 -0.055416796 -0.08486492 0.022565152
0003a0 9f 6f df 3c ac d5 ac bd f1 57 8d bd fa 89 c5 bd
       0.027274905 -0.08439192 -0.06901539 -0.096454576
0003b0 cb 33 a8 bd ff c2 98 bc bd 46 a2 bc e5 bb ec bd
       -0.08213004 -0.018647669 -0.019809121 -0.115592755
0003c0 2e d6 10 bd fc 08 f3 3c 47 01 18 be 7e b2 e1 3d
       -0.035360508 0.02966737 -0.14844237 0.11020373
0003d0 04 43 eb 3d f7 c7 f8 bd 28 32 56 bd 59 66 c2 bc
       0.114873916 -0.12147515 -0.052293926 -0.023730444
0003e0 92 7c 24 3e 83 10 be bd 6c 78 88 3d 89 15 a8 3d
       0.16063145 -0.09280493 0.06663594 0.082072325
0003f0 56 a7 23 3d ad e0 60 3d 6c b7 83 3d cf 3f 04 bc
       0.039954506 0.054901768 0.06431469 -0.008071854

conv3.0.bias f4 [32]
000000 4a 1d 5a bd 86 9f 03 bd dc 50 a1 bd 78 a7 72 bc
       -0.05325059 -0.032134555 -0.07876751 -0.0148104355
000010 ed 7d d9 bd 80 77 a0 3c 4b e7 d3 bd 09 59 e6 bd
       -0.106197216 0.019588232 -0.1034685 -0.11247451
000020 e8 f5 95 bd 6b 6f 86 3d 82 e3 e8 bd f6 9c 5a 3d
       -0.073222935 0.0656422 -0.11371519 0.053372346
000030 fb 9d cd bd b2 ef 33 3b 86 3f 00 be 5b da d0 bd
       -0.10039898 0.0027456102 -0.12524232 -0.10197898
000040 2c 95 fd bd ef e0 08 bd 64 78 fb 3c 99 7e 96 bd
       -0.12381968 -0.03341764 0.030697055 -0.07348365
000050 7d 3a d5 bd a8 d9 cb bd 0a 44 a1 bc 5f a4 8b bd
       -0.104115464 -0.09953624 -0.019685764 -0.06818461
000060 3e ad 82 3c aa 37 4d 3d bf 9c 5f 3c ee e7 19 3d
       0.015951749 0.050101914 0.013648211 0.0375747
000070 0c fc a6 bd 09 f1 ed bb f0 c3 48 bd 83 f4 f3 bd
       -0.08153543 -0.0072613996 -0.049014986 -0.11911871

conv4.0.weight f4 [64, 32, 3, 3]
000000 71 f2 5d bd 66 12 74 bc cd 42 19 3d ce 97 83 bd
       -0.05418629 -0.014896965 0.03741722 -0.06425439
000010 2b e5 ce 3d 25 53 52 3d fd 29 e6 3d 07 66 37 bd
       0.10102304 0.051348824 0.112384774 -0.044775035
000020 d5 12 47 bd f1 c6 f8 bc b4 e5 80 3d 88 44 a6 3d
       -0.048601944 -0.0303683 0.062938124 0.0811854
000030 2f e3 30 bd 75 bc 8b 3d dd 4f a2 bc 42 05 a4 3d
       -0.04318541 0.06823055 -0.019813472 0.08008815
000040 f2 82 b0 bc e4 ef 93 bc 98 ac 3c bb 24 b9 43 3e
       -0.021546815 -0.018058725 -0.0028789397 0.19113594
000050 16 9d 74 3c ba a5 31 3c 7d 36 ca 3d 2c 3c 8e bd
       0.01493003 0.010842735 0.09873674 -0.069450706
000060 8b 93 b4 bc e3 a0 30 3e 15 4f 32 3d 4f 8f 05 3d
       -0.02204301 0.17248873 0.04353245 0.032607373
000070 15 2d b2 3c 2d 4e a7 3d 9d 9c 8d bd dd e9 49 bd
       0.021750012 0.08169208 -0.06914637 -0.049295295
000080 2f 5b 41 be 3d 7b 51 3d 20 08 30 3e cf 5e 67 bd
       -0.1888244 0.05114292 0.171906 -0.0564869
000090 b2 7e 30 bd ac 15 12 3c 61 be c5 3d a4 56 02 be
       -0.043089576 0.0089163 0.096554525 -0.12728363
0000a0 4a e6 c5 bd af 09 54 3d 87 dc 88 ba e8 f1 24 3c
       -0.09663065 0.051767047 -0.0010441699 0.010067441
0000b0 f9 42 d8 3d 12 41 53 3c 54 6f cb bd 20 12 9a bd
       0.10559649 0.012893932 -0.099333435 -0.07522988
0000c0 91 f7 99 3c ab 60 9b bc 26 09 c5 3c 2c f3 47 3d
       0.018794807 -0.018966993 0.024052214 0.04881589
0000d0 24 72 8b bd 38 14 3b bd 88 ac 0d 3d a7 36 87 3d
       -0.0680888 -0.04567358 0.034588367 0.06602221
0000e0 0a 8d 64 3d 6b 4a 69 3d 9b 5b 48 3d 8b fa 06 3d
       0.055798568 0.056955736 0.048915487 0.03295378
0000f0 3a 81 94 bc 8f e1 08 be 6e 3c 2f bd 73 70 01 bd
       -0.018128026 -0.13367294 -0.04278224 -0.03160138
000100 f2 58 8d 3c d7 16 69 3d 45 98 bc bc 78 33 57 3c
       0.017254326 0.056906547 -0.023021827 0.01313483
000110 69 24 43 bd fb ba 73 bd c4 db a0 bb a6 b5 16 bc
       -0.047642145 -0.05950449 -0.0049090106 -0.009198582
000120 3b 82 d9 bd 6f 32 09 3d c9 70 26 bd 69 9b af 3c
       -0.106205426 0.033495363 -0.040634904 0.02143641
000130 90 bf cb bc a4 76 59 3d 05 39 ca 3d 68 f7 e2 3d
       -0.024871618 0.05309166 0.09874157 0.11082345
000140 39 9a 8a 3c f5 33 02 3c 10 73 d5 bd 6f b4 1e bb
       0.016919242 0.007946958 -0.10422337 -0.0024216434
000150 88 cc a6 3d d6 44 e5 bc 55 30 ef 3c f1 41 89 3b
       0.0814448 -0.027986925 0.029197851 0.004188769
000160 b6 bb a6 3c 97 34 87 bd d1 40 01 be 4d b2 8e 3d
       0.02035318 -0.066018276 -0.12622382 0.06967602
000170 91 e9 9f 3c f1 81 f1 bb 68 18 d0 3d 86 cf b5 bd
       0.019520553 -0.0073702266 0.10160905 -0.088774726
000180 62 65 b4 3d 2e 8f 95 bd 5f f6 98 3c c4 1e 60 bd
       0.088084 -0.073027 0.018672166 -0.05471684
000190 8e 28 de bd 5d a2 06 be 49 77 0a be c8 f4 4b 3d
       -0.10847579 -0.13147874 -0.13522066 0.04979399
0001a0 69 b4 9f bc c8 8e b5 3c 8d 04 f7 3c 9c ea 3d bd
       -0.019495206 0.02216281 0.030153537 -0.04636632
0001b0 e8 e4 23 be a9 c9 aa bd 41 80 0e be a7 ec 1b bd
       -0.1600529 -0.08339245 -0.13916112 -0.038067486
0001c0 65 9a 89 3d c9 2a 83 3d 46 aa b4 3d 16 53 92 bd
       0.067189015 0.06404645 0.088215396 -0.07144754
0001d0 c0 2a 05 be da 40 db bc 16 1d 48 bd 68 56 eb bd
       -0.13004589 -0.026764322 -0.048855864 -0.1149109
0001e0 fa 11 f8 bd 84 13 82 bd 11 b8 4f 3d 51 81 9e 3d
       -0.12112804 -0.063513786 0.05071265 0.07739509
0001f0 14 8d d6 bd f3 a1 13 bc a3 cb 1c 3d d8 1a 61 3c
       -0.10476127 -0.00901078 0.03828014 0.01373931
000200 27 b8 92 3d d1 8a ae b9 d7 60 6e bc 9d 12 39 bd
       0.071640305 -0.00033291292 -0.014549456 -0.045183767
000210 34 3e 70 3d ab a4 a8 3d 15 4c 0b be 81 5b 9e 3d
       0.05865307 0.08234533 -0.13603242 0.07732297
000220 40 61 a1 ba aa a5 4c bd e5 97 58 bd bf 93 06 3d
       -0.0012312308 -0.049962677 -0.052879233 0.032855745
000230 47 3e 23 bc 4d ea 03 bd 3e 35 66 3d 1e 76 a5 bc
       -0.009963579 -0.03220587 0.05620312 -0.020197924
000240 25 de cd 3d 68 05 f1 3c cd a5 ea bc c0 9b 7a 3c
       0.10052136 0.029421523 -0.028643513 0.015295923
000250 17 4c 84 bd 6e 3c 8d 3c 84 96 00 3e a4 58 9f bd
       -0.064598255 0.01724073 0.12557417 -0.07780579
000260 d9 77 30 bb 39 af de bc cd 0c 8a 3c f9 b3 d9 3d
       -0.0026926904 -0.027183162 0.016851807 0.1063003
000270 7f a4 64 3d 76 88 b6 3d e5 50 55 bd dd 0f 3a 3d
       0.05582094 0.089127466 -0.0520791 0.045425285
000280 08 78 fd 3a 40 37 5a 3d 50 0c 22 bc a3 8a 5c 3b
       0.001933814 0.053275347 -0.009890631 0.003365197
000290 ec 8e c1 3d 76 bb cb 3c 41 d6 2c bd 2b 75 b0 bc
       0.09451088 0.024869662 -0.042196516 -0.021540245
0002a0 87 27 3b 3d 84 39 a4 bb 03 9e 0c bd d2 76 aa 3c
       0.045691993 -0.005011739 -0.03433038 0.020808611
0002b0 8d 95 5e 3d 56 29 f2 3c 17 b7 c6 bc 41 be b7 bc
       0.05434184 0.029560726 -0.024257226 -0.022429587
0002c0 9e 5b 4b 3d 3d fa e3 bc de 4f b7 bb f6 d1 9d bc
       0.04964792 -0.027829284 -0.0055942377 -0.019265156
0002d0 4b a9 d1 3c d8 15 46 3d 83 fb 1d 3e 3d 9a bc bd
       0.02559342 0.048360676 0.15427975 -0.09209106
0002e0 43 32 34 bb 0a 93 ae 3d 70 7d 99 bd 71 52 30 bc
       -0.0027495779 0.08524139 -0.074946284 -0.010761843
0002f0 92 70 b5 bc 98 6b f6 bd 1c c6 c2 bd 29 13 84 3d
       -0.022148404 -0.12032241 -0.095104426 0.06448967
000300 bf 3d ee 3c d0 f1 9f 3c 3e 58 a7 3b 85 1b a7 3d
       0.029082177 0.019524485 0.005106955 0.08159546
000310 b5 82 33 bd 11 ff 0e 3d 94 03 90 bc 0a e5 23 bd
       -0.043825824 0.03491122 -0.017579831 -0.04001335
000320 8f e0 7c bd 9e e6 0f bd 8d 7d d1 bd 97 29 2e bd
       -0.061737593 -0.035132043 -0.10229025 -0.042520132
000330 8c 73 ec ba f6 e1 41 bd c1 1c ed bd ab 64 06 3c
       -0.0018039807 -0.047334634 -0.1157775 0.008202712
000340 c5 c1 11 3b 4e 07 c9 bd 38 e4 fb ba de f1 d6 3c
       0.002224074 -0.098158464 -0.0019217795 0.026238378
000350 83 f0 78 bd d3 b1 70 bb ad ee e0 bd bf 44 0c 3e
       -0.060776245 -0.0036727085 -0.10983024 0.136981
000360 df 7d 80 bd f8 07 42 bd 04 2a 03 3d 0c 45 e0 bc
       -0.06274008 -0.04737088 0.03202249 -0.027376674
000370 b3 a9 cc bd 92 1d 3d 3d fd 9d 00 3d 8b bf a9 bd
       -0.09993305 0.04617078 0.03140067 -0.08288487
000380 f0 93 22 3b 41 d1 a5 3d 6d 87 b8 bd ee fe 08 bd
       0.0024807416 0.08096553 -0.090102054 -0.033446245
000390 37 e7 fc 3b 17 88 8c bd 61 cd 2c 3d 6c f9 f5 bc
       0.0077179926 -0.068618946 0.042188052 -0.03002616
0003a0 0c df b3 bd f2 2f c0 bd f5 65 53 be 49 13 1c 3c
       -0.08782777 -0.09384145 -0.20644362 0.009526082
0003b0 57 65 e2 bc 20 c6 52 bd 0d fe c4 bc 06 31 5a bc
       -0.027636213 -0.051458478 -0.024046922 -0.013317352
0003c0 8d 9b fc 3d d3 e9 09 bb 40 aa 30 be 99 dd f3 3d
       0.123343565 -0.002104391 -0.17252445 0.11907501
0003d0 e5 80 55 bd ba ab 2e 3d a9 09 36 3e 62 6e c3 bc
       -0.052124877 0.04264424 0.17777123 -0.023856346
0003e0 6b 5b be bd d9 a2 c0 3c f1 64 a0 3c e5 a0 0f be
       -0.0929478 0.023515152 0.019579383 -0.1402622
0003f0 54 8e ab 3b 75 62 a0 3d 21 82 26 be 56 78 d5 3c
       0.0052354727 0.07831279 -0.16260578 0.026058357

conv4.0.bias f4 [64]
000000 99 d4 c5 3c 62 58 69 3d fb 24 69 bd 11 f2 f9 bc
       0.024149226 0.056969054 -0.056920033 -0.030510934
000010 2a a4 55 3b 76 5d 8b bd e1 74 0b 3d d3 d9 a1 bc
       0.003259907 -0.06804936 0.03404701 -0.019757187
000020 c4 74 74 bc ee ba 1c 3c 81 43 b4 3c 86 41 f8 bd
       -0.014920417 0.009566052 0.022004845 -0.121218726
000030 2f 39 12 ba 25 a4 0d bd ed 7e 34 3d eb d1 49 3b
       -0.0005577979 -0.03458037 0.04406636 0.0030795287
000040 d2 d6 d6 3a 8a 80 03 bc d0 e5 86 bd bd cd 87 3b
       0.0016390926 -0.008026252 -0.06586802 0.004144399
000050 6b 8f 1f 3d 7a d4 0a 3d 09 c8 1e bd 28 a8 74 bd
       0.038955133 0.03389404 -0.038764987 -0.05973068
000060 d1 02 99 3c 12 88 8e bc 30 65 b8 3c d3 9d 06 bd
       0.0186781 -0.017398868 0.022509187 -0.032865357
000070 34 b6 68 bd d2 50 91 bc c3 e8 9a bd 11 7a 40 3c
       -0.056814387 -0.017738733 -0.07563927 0.011747853
000080 9f 3d a4 bc 64 59 9b bd 01 72 3b 3c ff 52 ce 3b
       -0.020048914 -0.07585409 0.011440755 0.006296515
000090 7d 5e c3 bd f8 56 37 bb 48 15 03 bd c1 04 67 3c
       -0.095395066 -0.0027975421 -0.032002717 0.0141002545
0000a0 c8 20 d3 3c 2b 86 3b 3d d8 8e 89 bd 32 63 4f bd
       0.025772467 0.04578225 -0.067166984 -0.05063171
0000b0 11 63 7a 3c 6e 8b bb bc a1 6a 0a 3d e5 9a 1a 3d
       0.015282408 -0.022893634 0.033793095 0.037745375
0000c0 1e a1 5c bc fb 36 ea 3b d3 bc 19 bc f5 e7 4c 3d
       -0.013466148 0.0071476675 -0.009383398 0.0500259
0000d0 fe ea c6 bb 63 1e 0c 3d 7b 8e b6 bc bb 19 74 bd
       -0.0060704937 0.034208667 -0.022284737 -0.05959485
0000e0 b0 3c b2 3c 7a b4 31 bd 2f 6a 85 bd 71 e4 2e bd
       0.021757454 -0.043385006 -0.065143935 -0.042698327
0000f0 42 19 88 bd 14 d5 42 bc ad ac 57 bd b4 11 c0 bc
       -0.066454425 -0.011891622 -0.05265491 -0.023445942

fc.weight f4 [1, 64]
000000 8b c6 f8 be 70 a2 13 bf 81 eb 9b 3e ad cf 91 3e
       -0.48588976 -0.57669735 0.30453113 0.28478757
000010 69 20 8e be 6e 20 11 3f 0f ed 4f be 42 d5 b7 3e
       -0.27759102 0.5669011 -0.20305274 0.3590489
000020 a3 5d a2 3e 23 f9 2c bd c8 f7 3b be 39 bd 09 3f
       0.31712064 -0.042229783 -0.1835624 0.53804356
000030 c5 a2 28 be 01 fe 06 3f be d9 31 3e 2f de 5c 3e
       -0.16468342 0.5273133 0.17368218 0.21569131
000040 67 dc 6f 3e 73 46 af be f6 67 58 3e 6a ea 6d 3e
       0.2342392 -0.34233436 0.21133408 0.23233953
000050 1d bd 31 3e 59 27 91 3e fc 93 99 3e 85 7c 1c bf
       0.17357297 0.28350332 0.29995716 -0.611275
000060 51 3c 26 bf ed 61 33 3f fd 9f 7c 3e 45 ab a0 be
       -0.64935786 0.700713 0.24670406 -0.31380668
000070 69 7f 30 bf 47 67 7b be 51 51 07 bf 67 60 54 be
       -0.6894441 -0.24551116 -0.52858454 -0.207399
000080 1a 50 f9 3e 28 bf a0 3e eb e9 f8 be 52 aa 56 3e
       0.48693925 0.3139584 -0.48615965 0.2096341
000090 5e 6f eb 3e ca 3a c4 be a1 1e 6a 3e 99 d7 28 be
       0.45983404 -0.38326102 0.22863247 -0.16488494
0000a0 65 b1 d5 be b5 58 91 3e f3 1c e1 3e ad 61 d7 3e
       -0.41736904 0.2838799 0.439674 0.42066708
0000b0 bc 6d 46 3e 5e d7 ac be 0c b6 0d be 3b 58 48 3e
       0.19377798 -0.33758062 -0.13838977 0.19564907
0000c0 9b e6 16 bf d2 f8 8a 3e 08 2b 08 bf fa 20 8b 3e
       -0.58945626 0.2714296 -0.5319066 0.27173597
0000d0 c5 17 61 3e fc 84 6e 3e 58 83 fd be 10 20 f5 be
       0.21981724 0.23292917 -0.4951427 -0.47876024
0000e0 72 49 d7 be 88 d8 bf 3e 24 c4 c5 3e 84 4d 58 3e
       -0.42048222 0.37469888 0.38626206 0.2112332
0000f0 11 e6 83 3e 3c 5d 26 bf ce 5d ae 3e 00 8d 48 3e
       0.25761464 -0.64986014 0.34055942 0.19585037
