api/80.pth (torch_old, 100153 bytes, 9 tensors)

conv1.0.weight f4 [8, 3, 3, 3]
0	0x3ea80792	0.32818276
1	0xbc87e3fc	-0.016588204
2	0xbe8d4fef	-0.27600047
3	0x3decb54d	0.11558018
4	0x3dbcc530	0.09217298
5	0xbe47357b	-0.19453995
6	0x3eca03d8	0.39456058
7	0xbd77a0bb	-0.06045602
8	0xbe93390f	-0.2875447
9	0x3e2a976b	0.16659324
10	0xbd07c808	-0.03314975
11	0xbe439937	-0.19101416
12	0x3e01ab5f	0.12663029
13	0x3de0d1d9	0.10977525
14	0x3e56f691	0.20992495
15	0xbe60d0f6	-0.21954712
16	0xbe8f6f2d	-0.28014508
17	0x3dac45f0	0.08411777
18	0x3daa0802	0.083023086
19	0xbd3937ad	-0.045219112
20	0xbe9ad4b3	-0.30240402
21	0xbd0449c8	-0.032296926
22	0x3db4ae18	0.08822268
23	0x3e1afc1b	0.15135233
24	0x3e4f1df3	0.20226268
25	0xbd8b4b5d	-0.06801484
26	0xbe0c358f	-0.13692306
27	0xbbc45d46	-0.0059925644
28	0xbdd13e6e	-0.10216986
29	0x3dbd2a4d	0.09236584
30	0x3e16d2cd	0.14728852
31	0x3e1b9243	0.15192513
32	0xbd2f7353	-0.04283459
33	0x3e21f85c	0.15817398
34	0x3c51c355	0.012802918
35	0x3d37dcb1	0.044888202
36	0x3e59266d	0.21206065
37	0xbe08b5f1	-0.13350655
38	0xbd4d5630	-0.050131023
39	0x3bf392a9	0.0074332547
40	0xbd358b3d	-0.04432224
41	0x3e4f25e2	0.20229295
42	0x3d9ababf	0.0755515
43	0x3e5a78c9	0.21335138
44	0xbc887864	-0.01665897
45	0x3c1e30ed	0.0096552195
46	0x3e169ed8	0.14709032
47	0xbd48dca2	-0.049038537
48	0x3e445130	0.19171596
49	0xbbb010d5	-0.0053731003
50	0xbe0f7c0c	-0.14012164
51	0xbd8a0479	-0.06739134
52	0xbd82bbd4	-0.063834816
53	0xbd1f890b	-0.038949054
54	0xbe47c6fd	-0.19509502
55	0xbe8713b9	-0.26382235
56	0xbe03c6c8	-0.12868798
57	0x3d02c9af	0.03193062
58	0xbded1641	-0.1157651
59	0xbd89bcc6	-0.06725459
60	0xbe752aa4	-0.23942047
61	0xbd7e6199	-0.062104795
62	0xbe24c4e4	-0.16090733
63	0x3e7aa7f3	0.2447813
64	0x3dde7839	0.108627744
65	0x3e2190cf	0.15777896
66	0x3d8f4432	0.06995429
67	0xbe080d94	-0.1328643
68	0x3eaff70d	0.34368172
69	0x3d1b61fe	0.03793525
70	0xbdc4c7a8	-0.09608394
71	0x3e4937d9	0.1965021
72	0x3d3c0751	0.045905415
73	0x3dcd78f4	0.100328356
74	0x3e02a016	0.1275638
75	0x3e2b130f	0.16706489
76	0xbe7f3adc	-0.24924797
77	0x3eaa845c	0.33304107
78	0xbe166311	-0.14686228
79	0x3d256c88	0.040386707
80	0x3c82a7ff	0.015949247
81	0xbea02f53	-0.31286106
82	0xbeb37ec7	-0.3505766
83	0x3db5e68f	0.08881866
84	0xbd9bf717	-0.07615488
85	0xbe6cef85	-0.23138244
86	0xbe18fdd5	-0.14940579
87	0x3e489462	0.19587854
88	0x3d16eca2	0.036846764
89	0xbe986a29	-0.29768494
90	0xbe64c2c0	-0.22339916
91	0x3e468cf3	0.19389705
92	0x3dd9887f	0.10621738
93	0x3d100ea7	0.035170224
94	0x3dd62da6	0.104579255
95	0xbd9124d7	-0.07087105
96	0x3e8236e1	0.25432494
97	0x3e13d7e9	0.14437832
98	0x3c1b21fa	0.00946855
99	0xbcf8f83b	-0.030391803
100	0xbe36a4b4	-0.17836267
101	0x3d14e37b	0.036349755
102	0x3e04e761	0.12978889
103	0xbdc72132	-0.097231284
104	0xbe646e6e	-0.2230775
105	0x3e67f1a7	0.22650777
106	0xbd3655bf	-0.044515368
107	0x3c18ac78	0.0093184635
108	0x3e432331	0.19056393
109	0xbe5ef9f0	-0.21775031
110	0xbe877b11	-0.2646108
111	0xbe30a1c4	-0.17249209
112	0xbdd3a4b1	-0.10334147
113	0xbd6eadc4	-0.058271185
114	0x3ca06c2c	0.01958283
115	0xbd8afad0	-0.0678612
116	0x3e3b8cf2	0.18315485
117	0xbe7e4177	-0.2482966
118	0xbe40ea0d	-0.18839283
119	0x3e859e6c	0.2609743
120	0xbe63ef66	-0.22259292
121	0xbd076426	-0.033054493
122	0x3e2bca48	0.16776383
123	0xbdc3e446	-0.09565024
124	0x3e885ee2	0.2663489
125	0x3ecb582c	0.39715707
126	0xbe01efff	-0.12689207
127	0x3c2fff26	0.0107419845
128	0x3e1c8bfa	0.15287772
129	0xbdaeadf8	-0.08529276
130	0xbe442b2c	-0.19157094
131	0x3e1ddcc8	0.15416253
132	0xbe4d885d	-0.2007155
133	0x3e240e3d	0.16021056
134	0x3e94c201	0.29054263
135	0x3d91019b	0.07080384
136	0x3d1cccdf	0.038281318
137	0x3eb07607	0.34465048
138	0x3ddf20f3	0.108949564
139	0x3b5c69a7	0.003363231
140	0x3e4063c1	0.18788053
141	0x3de1e2f9	0.1102962
142	0x3dc59deb	0.09649261
143	0x3c5e15c2	0.013554992
144	0xb959a342	-0.00020755551
145	0xbe03587c	-0.12826723
146	0xbde291bc	-0.11062953
147	0x3de828c3	0.113359
148	0xbe880e24	-0.26573288
149	0xbe09b637	-0.13448416
150	0xbe0752c3	-0.13215165
151	0xbe88c0a2	-0.26709467
152	0xbe8dc6ab	-0.27690634
153	0xbd291289	-0.041277442
154	0xbe3a2a6f	-0.1818025
155	0xbc16e110	-0.0092089325
156	0x3e1d3674	0.15352803
157	0x3ccc4066	0.024933051
158	0x3e2db749	0.16964449
159	0xbd83eff1	-0.064422496
160	0xbb997d42	-0.0046841213
161	0xbdf0a37f	-0.117499344
162	0x3ed0f182	0.40809256
163	0xbdab2da7	-0.08358317
164	0xbe9bffd4	-0.3046862
165	0x3daf1b16	0.08550088
166	0xbe6be681	-0.23037149
167	0x3dc6c6c5	0.09705881
168	0x3e669da3	0.22521071
169	0xbde2cda7	-0.11074381
170	0x3e7009fd	0.2344131
171	0x3d3ede1c	0.04659854
172	0xbe6d7d38	-0.23192298
173	0xbe7bb1a5	-0.24579485
174	0x3eae000c	0.3398441
175	0xbe51eb0c	-0.2049982
176	0xbe1a5237	-0.15070425
177	0x3e51bc95	0.20482095
178	0xbd725ad6	-0.05916866
179	0x3d10321b	0.035204034
180	0x3db2a725	0.087232865
181	0x3c7c4086	0.015396243
182	0xbeb083d4	-0.34475577
183	0x3e907463	0.28213796
184	0xbc48c4d3	-0.012253958
185	0xbdf8e5a9	-0.12153179
186	0xbc0d9ba9	-0.008643069
187	0xbe542f23	-0.20721106
188	0x3b716d90	0.0036838986
189	0x3f2b0894	0.66809964
190	0x3eb0d734	0.34539187
191	0xbe998767	-0.29986116
192	0x3f4706ba	0.7774464
193	0x3f084fbd	0.5324667
194	0xbe05d137	-0.1306809
195	0x3f21d480	0.63214874
196	0x3eefbd9e	0.46824354
197	0xbe76f4f6	-0.24116883
198	0xbe8d317e	-0.27576822
199	0xbe693635	-0.22774585
200	0x3d0abfa6	0.033874176
201	0xbe023b91	-0.12718035
202	0x3d00f709	0.03148559
203	0xbddea112	-0.108705655
204	0x3db221cc	0.086978525
205	0xbd4cbd6c	-0.049985334
206	0x3cac50f2	0.021034691
207	0x3d5d4a8e	0.05402618
208	0xbd8b41fb	-0.06799694
209	0xbdba4a8e	-0.090962514
210	0xbdae3023	-0.08505275
211	0x3e15056c	0.1455285
212	0xbe92468c	-0.28569448
213	0x3e6934cc	0.22774047
214	0xbddb3c2e	-0.10704838
215	0xbc5425c4	-0.012948457

conv1.0.bias f4 [8]
0	0x3df8eada	0.121541694
1	0xbdcc16d7	-0.09965294
2	0x3e945b0a	0.28975707
3	0xbdf90a28	-0.1216014
4	0x3e8ddd78	0.2770803
5	0x3e49aff2	0.19696024
6	0x3d4bb63c	0.04973434
7	0x3cf15d90	0.02946356

conv2.0.weight f4 [16, 8, 3, 3]
0	0x3e47e83e	0.19522187
1	0xbe1376e5	-0.14400823
2	0xbd9157da	-0.070968345
3	0x3d984634	0.07435265
4	0x3d50f648	0.051016122
5	0x3da6fa4b	0.08153208
6	0xbda84fb4	-0.08218327
7	0x3db76e56	0.08956592
8	0x3ccf2126	0.025284361
9	0x3db461e0	0.08807731
10	0x3d1e3ecb	0.038634103
11	0x3c80ed3f	0.015738128
12	0x3ddd825f	0.10815882
13	0x3bb61e9f	0.0055578495
14	0x3d9f873e	0.07789467
15	0xbd92b346	-0.071631
16	0xba0422e5	-0.00050406
17	0xbd9d9ca0	-0.076958895
18	0x3ee7d245	0.4527761
19	0x3cf4aba2	0.029866997
20	0xbd84922e	-0.06473194
21	0x3ebf50af	0.37366244
22	0x3ee666a8	0.45000196
23	0x3ea0a30c	0.31374395
24	0x3ec02678	0.3752935
25	0x3e15ad23	0.14616828
26	0x3e033d78	0.12816417
27	0x3dcc0a91	0.09962953
28	0x3d3105c4	0.04321839
29	0x3e8450c7	0.25842878
30	0x3cc35ae0	0.023847044
31	0xbdb2cd6b	-0.087305866
32	0x3e1da0d1	0.15393378
33	0x3d352482	0.04422427
34	0x3e0cca4a	0.13749042
35	0x3ddde6e4	0.108350545
36	0x3e84220f	0.25807235
37	0xbb3c9ed9	-0.0028781204
38	0x3e16ec97	0.1473869
39	0x3e8a7569	0.27042702
40	0xbc9d01fb	-0.019165983
41	0xbc7e9597	-0.015538595
42	0x3d82634a	0.06366594
43	0xbebf20dd	-0.3732976
44	0x3d8f8b9d	0.07009051
45	0xbd757c60	-0.059933066
46	0xbe4b5454	-0.19856387
47	0xbddca3b2	-0.1077341
48	0xbe8e082d	-0.27740613
49	0xbd4be349	-0.049777303
50	0xbba28d03	-0.0049606576
51	0xbe74a894	-0.23892432
52	0x3d7a6fec	0.061141893
53	0xbce38bb3	-0.027776575
54	0xbd5fe527	-0.054661896
55	0x3e5f13f7	0.2178496
56	0xbe33899d	-0.17532964
57	0x3c24d2e4	0.010060046
58	0xbdaaec6f	-0.083458774
59	0xbb085bc5	-0.0020806652
60	0xbe187d4a	-0.14891544
61	0x3d887f4b	0.06664904
62	0xbd5e6d23	-0.0543033
63	0xbe5ab689	-0.21358694
64	0xbe2d5061	-0.16925193
65	0x3e042e1f	0.12908219
66	0xbdda346c	-0.1065453
67	0xbe752d8a	-0.23943153
68	0x3e27eb2e	0.16398308
69	0xbdf51563	-0.1196697
70	0xbd8465bd	-0.064647175
71	0x3c989f97	0.018630786
72	0xbddf8e91	-0.10915864
73	0xbe765f6f	-0.24059843
74	0x3c802475	0.015642384
75	0xba8a8f4d	-0.0010571271
76	0xbdb88455	-0.09009615
77	0xbe55a1ba	-0.20862475
78	0xbde59f5d	-0.11212037
79	0x3e24c549	0.16090883
80	0xbb9de934	-0.0048190597
81	0x3dc7bf97	0.0975334
82	0xbd6f5d45	-0.058438558
83	0xbda7a6d9	-0.081861205
84	0x3d4e678e	0.050391726
85	0xbd3f49e6	-0.046701334
86	0xbc9aae10	-0.018881828
87	0x3cf70724	0.030154772
88	0xbde808d2	-0.11329807
89	0x3de58a70	0.112080455
90	0x3dbded05	0.092737235
91	0x3da6aa2d	0.08137927
92	0xbdd496af	-0.10380303
93	0xbd4ed342	-0.05049444
94	0x3e967b0d	0.29390755
95	0xbd2bf141	-0.041978125
96	0x3e25b4a2	0.16182187
97	0x3e4e176d	0.20126124
98	0x3d9c5e2f	0.076351516
99	0xbb53fe29	-0.0032347536
100	0xbd092917	-0.033486452
101	0xbd95800c	-0.07299814
102	0x3cf5f0b3	0.030022
103	0x3e15eba5	0.14640673
104	0xbc0366f9	-0.008020156
105	0x3c935895	0.017986575
106	0x3e887910	0.26654863
107	0xbd7bc1f8	-0.06146428
108	0x3e468c1f	0.1938939
109	0xbe14042a	-0.14454713
110	0xbd96a33f	-0.073553555
111	0x3da557cf	0.08073389
112	0x3c8d2944	0.017231591
113	0xbe818c23	-0.25302228
114	0x3e9cf773	0.3065754
115	0x3d638304	0.055544868
116	0xbe285269	-0.16437687
117	0xbe4a7b8f	-0.19773696
118	0xbe15ca9e	-0.14628074
119	0xbd065c89	-0.032803092
120	0xbe4b0f93	-0.1983016
121	0xbdf71cc7	-0.12066036
122	0x3e068bfd	0.13139339
123	0xbe5bf7ca	-0.21481243
124	0xbe346105	-0.17615135
125	0xbd82cb55	-0.06386439
126	0xbd906fbd	-0.070525624
127	0x3d9a7111	0.07541097
128	0x3e1567be	0.14590356
129	0xbe4bb9cd	-0.19895096
130	0xbd80cc50	-0.062889695
131	0xbdbb98a6	-0.09159975
132	0xbcb593ff	-0.022165297
133	0x3d1cc9af	0.038278278
134	0xbce2c0d1	-0.027679833
135	0xbded10fe	-0.11575507
136	0x3e2fd37f	0.17170523
137	0xbd471099	-0.048599813
138	0x3d47235d	0.04861771
139	0xbeae5897	-0.34051964
140	0x3ca252da	0.019814897
141	0x3d0778ef	0.033074316
142	0x3dac8e10	0.08425534
143	0x3e05efe8	0.13079798
144	0x3eadde75	0.33958784
145	0xbd983574	-0.074320704
146	0xbd2c47a8	-0.042060524
147	0x3e672299	0.22571792
148	0x3c6d09a2	0.014467629
149	0xbe2518c4	-0.16122729
150	0x3ddedcdc	0.10881969
151	0x3e2736f8	0.16329563
152	0xbd40ef22	-0.047103055
153	0x3ddec178	0.10876745
154	0xbd9f2f08	-0.077726424
155	0xbde80a18	-0.1133005
156	0x3c455fbb	0.01204675
157	0x3da29601	0.07938767
158	0xbdad89bc	-0.08473536
159	0x3dc7f888	0.097642004
160	0x3df30464	0.11866072
161	0x3da0fbc2	0.07860519
162	0xbb5989f5	-0.00331938
163	0x3e0ff2db	0.14057486
164	0xbd35eb20	-0.044413686
165	0x3cce7418	0.025201842
166	0x3dfe3341	0.1241212
167	0xbe5182ed	-0.204601
168	0x3d5190a0	0.051163316
169	0x3e5260ed	0.20544787
170	0x3e43d324	0.19123513
171	0x3dedaff8	0.11605829
172	0xbbb922b8	-0.0056498908
173	0xbc220d28	-0.009890832
174	0xbc03db52	-0.0080478955
175	0x3e1516ed	0.14559527
176	0xbdf83f57	-0.12121456
177	0x3b75e753	0.0037521913
178	0x3de7badd	0.11314938
179	0xbe4a02f1	-0.19727685
180	0x3c4cc89d	0.012499002
181	0x3e19dd7a	0.15025893
182	0xbe824ecb	-0.2545074
183	0x3dde483e	0.10853623
184	0x3d81892e	0.06324993
185	0xbeab1d05	-0.33420578
186	0x3da2172c	0.07914576
187	0x3e1b828c	0.15186518
188	0xbe12d52f	-0.14339136
189	0x3db5f8aa	0.088853195
190	0xbe56c7cc	-0.20974654
191	0xbc690ec8	-0.0142247155
192	0xbd549ce4	-0.051907435
193	0xbe5a39ed	-0.2131116
194	0xbda8ee74	-0.08248606
195	0xbda11070	-0.07864463
196	0xbe949246	-0.29017848
197	0xbe0f0a4d	-0.13968773
198	0xbc7b8c7d	-0.015353319
199	0x3db35283	0.08755972
200	0xbce4901d	-0.02790075
201	0x3d8836f6	0.06651108
202	0x3e00b58f	0.12569259
203	0x3e012d40	0.12614918
204	0x3df95404	0.12174228
205	0x3dff2f37	0.124601774
206	0xbd1997a6	-0.03749814
207	0x3ec77d53	0.38962802
208	0xbd7aae5a	-0.06120143
209	0xbea08881	-0.31354144
210	0x3e4b4d19	0.19853629
211	0xbdf8231d	-0.12116072
212	0xbc37d748	-0.011220761
213	0x3e991f67	0.2990677
214	0xbd4af72c	-0.049552128
215	0xbe77e1ee	-0.24207279
216	0xbe228263	-0.15870051
217	0xbd800dfe	-0.06252669
218	0x3c8c6042	0.017135743
219	0x3ccd421f	0.025055943
220	0x3dc79dac	0.097468704
221	0xbdd86da5	-0.10567788
222	0x3cd8412a	0.02639826
223	0x3dda1f5f	0.10650515
224	0xbd97cdb6	-0.07412283
225	0xbdb470c2	-0.08810569
226	0x3d22dee3	0.039763343
227	0xbd8deba2	-0.06929709
228	0x3d630e8d	0.0554338
229	0xbb09c652	-0.002102275
230	0x3dc66d29	0.096887894
231	0x3dadf05a	0.08493109
232	0xbba0318f	-0.0048887203
233	0xbcc7db4d	-0.024396563
234	0x3dd11dd1	0.10210765
235	0x3e84ddd8	0.25950503
236	0x3e4bc3c9	0.19898905
237	0x3e876746	0.2644598
238	0x3d8b0359	0.06787748
239	0x3eb65958	0.3561504
240	0xbe0a7827	-0.13522397
241	0x3c2f0e4f	0.010684564
242	0x3e04ee06	0.12981424
243	0xbc0c5396	-0.00856485
244	0x3e23214f	0.15930675
245	0xbe1e5831	-0.1546333
246	0x3e31adda	0.17351475
247	0xbd197525	-0.037465233
248	0xbd251e4b	-0.040312093
249	0x3e6bb3f3	0.23017864
250	0xbd530e09	-0.051527057
251	0xbe82130c	-0.25405157
252	0x3e68feec	0.22753495
253	0x3e655206	0.2239457
254	0xbe488789	-0.19582953
255	0xbda85fcb	-0.08221396

conv2.0.bias f4 [16]
0	0xbd9c1ac4	-0.07622293
1	0x3da3c0a4	0.07995728
2	0xbe0154bd	-0.12629981
3	0x3dac43a8	0.08411342
4	0xbd6332bb	-0.055468302
5	0x3dca3ef6	0.0987529
6	0xbd9a21e7	-0.075259976
7	0xbcffeab7	-0.03123985
8	0x3dd339ad	0.10313735
9	0xbe0d5940	-0.13803577
10	0x3e028b83	0.12748532
11	0xbe10a135	-0.14123996
12	0xbdf1f2d8	-0.11813897
13	0xbdda2360	-0.106512785
14	0xbdfef5cf	-0.12449228
15	0xbdb521cb	-0.08844336

conv3.0.weight f4 [32, 16, 3, 3]
0	0x3ced5cab	0.028974852
1	0x3df58d4c	0.11989841
2	0x3d848c22	0.06472041
3	0xbe21d804	-0.1580506
4	0xbd81fcd5	-0.06347052
5	0x3c49610b	0.012291203
6	0x3da9d0eb	0.08291801
7	0x3d6495cf	0.05580693
8	0x3e0df507	0.13863002
9	0x3d709e0c	0.058744475
10	0xbe818564	-0.2529708
11	0xbe22babc	-0.15891546
12	0x3d48ad4c	0.048993394
13	0xbe8956a6	-0.2682392
14	0x3cdb40e1	0.026764335
15	0xbce1f226	-0.027581286
16	0x3e632caa	0.22185007
17	0xbd922ab5	-0.07137052
18	0xbd9cae7b	-0.07650467
19	0x3e3b89fd	0.18314357
20	0xbe00cfbe	-0.12579247
21	0xbe2f8d6e	-0.17143795
22	0x3d6e44e5	0.05817117
23	0x3b7c5fc2	0.0038509225
24	0xbd9d2073	-0.07672205
25	0x3cec16d1	0.028819473
26	0xbde404fb	-0.111337624
27	0xbe845566	-0.25846404
28	0xbdbde24c	-0.09271678
29	0x3dc6ee8d	0.09713469
30	0xbe397437	-0.18110739
31	0xbdf5f492	-0.12009539
32	0xbd954e79	-0.07290358
33	0x3d874436	0.06604807
34	0x3dc09cab	0.09404882
35	0x3cd3c9db	0.025853088
36	0x3da32094	0.07965198
37	0xbdc82dcd	-0.09774361
38	0xbe05c246	-0.1306239
39	0xbcfcb559	-0.030848192
40	0x3cb28580	0.021792173
41	0x3d242821	0.040077332
42	0x3dc85297	0.09781378
43	0xbe06d41d	-0.13166852
44	0xbd61b1ba	-0.055101134
45	0xbcaa48d1	-0.020786675
46	0xbded129a	-0.115758136
47	0x3cf87599	0.030329512
48	0x3d910fd6	0.070830986
49	0x3d8717b7	0.0659632
50	0xbb0508e2	-0.0020299484
51	0x3c172a06	0.009226328
52	0x3b831cf7	0.0040012556
53	0x3d4f4cc0	0.050610304
54	0xbd4c275a	-0.049842216
55	0xbdaa8432	-0.083259955
56	0x3d8dae03	0.06917956
57	0xbd83e30f	-0.06439792
58	0x3ce2a7ae	0.027667847
59	0xbcd6b3cc	-0.02620878
60	0x3d3395ab	0.043843906
61	0x3d043d17	0.032284822
62	0xbd1a24c1	-0.037632708
63	0x3e26766d	0.16256113
64	0x3c832c43	0.016012317
65	0xbdf864b0	-0.121285796
66	0x3cf9d94b	0.030499121
67	0x3d68c9ef	0.056833204
68	0xbe1f529b	-0.15558855
69	0x3d800764	0.0625141
70	0xbd7dbd22	-0.06194795
71	0x3cb84522	0.022493903
72	0xbdc83e33	-0.097774886
73	0xbd9eb575	-0.07749454
74	0xbdca7123	-0.0988486
75	0xbcd9f446	-0.026605736
76	0xbe218923	-0.1577497
77	0xbe1ca6e5	-0.1529804
78	0xbd10b8db	-0.035332542
79	0xbca9a89f	-0.020710288
80	0xbe05e9d1	-0.13077475
81	0x3ded9a4a	0.11601694
82	0x3e6cac27	0.23112546
83	0xbd2cca4f	-0.042185124
84	0x3e130435	0.14357074
85	0x3d4f686a	0.050636686
86	0x3d1fa950	0.03897983
87	0x3deaa9c6	0.11458163
88	0x3de7664d	0.11298809
89	0x3e525cdb	0.20543234
90	0x3db3c73f	0.087782376
91	0xbc8088f7	-0.01569031
92	0x3e45894f	0.1929066
93	0xbe878670	-0.26469755
94	0x3a05541a	0.00050860795
95	0x3d7135a3	0.058889043
96	0x3cc98591	0.024599822
97	0xbdc64850	-0.09681761
98	0xbd8410d6	-0.06448524
99	0x3de10c58	0.109886825
100	0x3e17cdf0	0.14824653
101	0xbe018082	-0.12646678
102	0xbc7490a0	-0.014927059
103	0xbcf10ce4	-0.029425092
104	0xbe35b875	-0.17746146
105	0xbda75383	-0.081702255
106	0xbdbfab2e	-0.09358822
107	0x3e0b24d5	0.13588269
108	0x3d45e0a2	0.04830993
109	0x3e313819	0.17306556
110	0xbdb9209d	-0.090394236
111	0x3e00a5da	0.12563267
112	0x3d6445e7	0.055730727
113	0xbd81b131	-0.06332625
114	0xbe15a9e2	-0.14615586
115	0xbc7d115f	-0.015446036
116	0xbd97855e	-0.07398485
117	0x3d39f8ec	0.045403406
118	0xbd2eedf4	-0.0427074
119	0xbdd65052	-0.10464539
120	0x3ce3ef7e	0.02782416
121	0xbd964324	-0.07337025
122	0xbd860376	-0.06543629
123	0x3cc1b459	0.023645567
124	0xbdd1be6a	-0.10241397
125	0x3e2967a7	0.16543446
126	0x3e0b18a5	0.1358362
127	0x3d0789d9	0.033090446
128	0xbe6ec6b6	-0.2331799
129	0x3e24933b	0.16071789
130	0xb9b56a7a	-0.00034602341
131	0xbd39a24a	-0.045320787
132	0xbe1f8cb5	-0.15581019
133	0xbc611911	-0.013738886
134	0x3e50862c	0.20363683
135	0x3bbc5341	0.0057472293
136	0xbe26a9bd	-0.16275688
137	0xbd8922cf	-0.06696092
138	0x3e57bf96	0.21069178
139	0xbdd231bc	-0.10263392
140	0x3d53e9aa	0.05173651
141	0x3e037640	0.12838078
142	0x3e02ee35	0.12786181
143	0x3e00fd08	0.12596524
144	0xbe24955e	-0.16072604
145	0x3e12f682	0.14351848
146	0xbe5d1f28	-0.21593916
147	0x3cdda13f	0.027054427
148	0xbb813c32	-0.0039439434
149	0xbc32354c	-0.010876965
150	0x3c9bd573	0.019022679
151	0x3dbc1ab2	0.09184779
152	0x3e4fe86d	0.20303507
153	0xbcbf7cab	-0.023374876
154	0xbdecdd1a	-0.11565609
155	0x3c8fa1f7	0.017533286
156	0x3df4c715	0.119520344
157	0xbd31078f	-0.0432201
158	0xbda59fd7	-0.08087128
159	0x3df05d5d	0.11736558
160	0x3d6c5c5b	0.057705265
161	0xbe163675	-0.14669211
162	0xbe1f497f	-0.1555538
163	0xbe517aad	-0.20456953
164	0x3cd3506d	0.025795186
165	0x3baf971a	0.005358589
166	0xbbd37497	-0.0064531076
167	0x3cb52e38	0.022116765
168	0xbe0c55c1	-0.13704588
169	0x3ca3a55f	0.019976316
170	0x3ca8968f	0.020579604
171	0xbbc77aeb	-0.006087651
172	0x3dc27edf	0.09496855
173	0x3c99dd3c	0.01878225
174	0x3d9c9af7	0.07646745
175	0xbd6829ad	-0.05668037
176	0x3c9e17ea	0.019298512
177	0x3e0d4d38	0.13798988
178	0xbc8476c4	-0.016169913
179	0x3e014e8d	0.12627621
180	0x3d83a4ab	0.06427892
181	0x3d83b31b	0.06430646
182	0x3c04fd7c	0.008117076
183	0xbdfd98e4	-0.12382677
184	0x3d023f65	0.03179874
185	0xbd363720	-0.044486165
186	0x3c017c1c	0.007903125
187	0x3da4c6c2	0.080457225
188	0xbe5a2f2f	-0.21307062
189	0x3db4a870	0.088211894
190	0x3b442a3e	0.0029932405
191	0x3d6272a8	0.055285126
192	0xbd9bf0cd	-0.076142885
193	0xbcadf215	-0.021233598
194	0xbda0425c	-0.07825157
195	0x3d97b636	0.07407801
196	0xbe332afd	-0.17496867
197	0xbdbcff3d	-0.0922837
198	0x3d0c678a	0.03427843
199	0xbda95fb3	-0.08270206
200	0xbdf0698a	-0.1173888
201	0x3c9995c4	0.018748172
202	0x3ce2f6a9	0.027705507
203	0x3806bec2	3.2125747e-05
204	0xbc11d516	-0.008900901
205	0x3dc70afd	0.09718893
206	0x3e450187	0.19238864
207	0x3da3ec7d	0.08004091
208	0x3dc620fb	0.09674259
209	0xbd9099e9	-0.07060606
210	0x3d81cb13	0.063375615
211	0xbde630bd	-0.11239765
212	0xbe5a88c8	-0.2134124
213	0xbc7c2022	-0.01538852
214	0xbc533df4	-0.012893189
215	0x3dde7081	0.10861302
216	0xbd1aae3d	-0.037763823
217	0xbdf24cf3	-0.11831083
218	0x3d9071bd	0.07052944
219	0x3e360f2e	0.17779228
220	0xbe1e727b	-0.15473358
221	0xbd2a2d03	-0.041546833
222	0x3d424f70	0.04743904
223	0x3cacddd1	0.021101864
224	0xbda51fbe	-0.08062695
225	0xbd769d10	-0.06020838
226	0x3c261eee	0.01013921
227	0x3e1bd085	0.15216263
228	0x3cd4c5d8	0.025973246
229	0xbcfad2ce	-0.030618098
230	0xbd9a44e3	-0.0753267
231	0x3da7682a	0.081741646
232	0x3d343182	0.043992527
233	0xbdd68eae	-0.10476433
234	0xbd3071ce	-0.043077283
235	0xbda85eb2	-0.08221187
236	0xbd8fb0c4	-0.07016137
237	0xbc789eaf	-0.015174552
238	0xbd070325	-0.032961983
239	0xbe2585c4	-0.16164309
240	0xbc7e4d5c	-0.015521374
241	0x3d8d12af	0.06888329
242	0xbe4db27c	-0.20087618
243	0x3dc3dc64	0.095635206
244	0x3e03e4c2	0.12880233
245	0xbe119916	-0.14218554
246	0xbd6c1643	-0.057638418
247	0x3caa668c	0.020800851
248	0x3e5a6418	0.21327245
249	0xbde97cf1	-0.11400784
250	0x3d8bb3c2	0.068213955
251	0x3da13328	0.078710854
252	0x3d5ac037	0.053405967
253	0x3d7744d5	0.060368378
254	0x3d8ad20d	0.06778345
255	0xbd143553	-0.036183666

conv3.0.bias f4 [32]
0	0xbd51e984	-0.05124809
1	0xbd126ea2	-0.03575004
2	0xbdbfbae3	-0.09361818
3	0xb97bae28	-0.00024002104
4	0xbdf8a672	-0.12141122
5	0x3cdfcddd	0.027319843
6	0xbdd9d4db	-0.10636302
7	0xbe086558	-0.1331991
8	0xbda1561a	-0.07877751
9	0x3db3a184	0.08771041
10	0xbe059a6f	-0.13047193
11	0x3d8b6771	0.06806839
12	0xbe166e62	-0.14690545
13	0x3b657324	0.0035011256
14	0xbe35dea8	-0.17760718
15	0xbe033dea	-0.12816587
16	0xbe1b5183	-0.15167813
17	0xbd088f91	-0.03334004
18	0x3d0f4742	0.034980066
19	0xbd967e99	-0.07348365
20	0xbddc37ad	-0.10752807
21	0xbdc0ef1a	-0.09420605
22	0xbc5726a2	-0.013131769
23	0xbdc0478a	-0.09388645
24	0xb9d78ea6	-0.00041114277
25	0x3d7f7f9f	0.06237757
26	0x3cef016b	0.02917548
27	0x3d3df1bd	0.046373118
28	0xbde8dd4f	-0.11370336
29	0xbd1feec7	-0.039046075
30	0xbd4f4da0	-0.05061114
31	0xbe24ecdd	-0.16105981

conv4.0.weight f4 [64, 32, 3, 3]
0	0xbd38fea0	-0.045164704
1	0xbcb49b76	-0.022046786
2	0x3d17f9ba	0.037103392
3	0xbd454c95	-0.048168737
4	0x3e1981ab	0.1499087
5	0x3d7da2b5	0.061922748
6	0x3dfe4e3b	0.12417265
7	0xbd5077b1	-0.050895397
8	0xbd79ea51	-0.061014477
9	0xbd68800d	-0.056762744
10	0x3d77de1d	0.060514558
11	0x3de49d69	0.11162836
12	0xbcaf1a5c	-0.021374874
13	0x3d47e4ba	0.048802115
14	0xbc6bfb91	-0.01440324
15	0x3e0dc4d4	0.13844615
16	0xbd9f2308	-0.077703536
17	0x3ca7884c	0.020450734
18	0xbc2074c5	-0.009793465
19	0x3e361d26	0.17784557
20	0x3db7800a	0.089599684
21	0xbc675d3e	-0.014121352
22	0x3d9fc3d3	0.078010224
23	0xbd84584e	-0.06462155
24	0xbc1662c5	-0.009178822
25	0x3e47e947	0.19522582
26	0x3d08f913	0.03344066
27	0x3d79559f	0.06087267
28	0x3c981801	0.018566133
29	0x3d29227c	0.041292652
30	0xbda661b8	-0.08124107
31	0xbd9a209e	-0.075257525
32	0xbdddbf4e	-0.10827504
33	0x3dadc487	0.0848475
34	0x3e778d63	0.24175029
35	0x3d748029	0.059692536
36	0xbc8d1bd4	-0.017225184
37	0xbcd69358	-0.026193306
38	0x3ded165a	0.11576529
39	0xbe2f31fb	-0.1710891
40	0xbdecedab	-0.11568769
41	0x3d397929	0.045281563
42	0xbc7cc23b	-0.0154271675
43	0xbc1599ec	-0.009130936
44	0x3dd97710	0.106184125
45	0x3aab5610	0.0013071913
46	0xbdefd187	-0.11709886
47	0xbd345520	-0.044026494
48	0xbc327122	-0.010891231
49	0xbd12042f	-0.03564852
50	0x3d61061a	0.05493746
51	0x3d39ea3d	0.045389403
52	0xbdaa96d3	-0.08329549
53	0xbd89fc3f	-0.06737565
54	0x3d639d6d	0.055570055
55	0x3d868311	0.06567968
56	0x3da4be35	0.080440916
57	0x3d2fc540	0.04291272
58	0x3d0e735c	0.034777984
59	0x3d3ee3bb	0.0466039
60	0x3c32ec68	0.010920621
61	0xbdf4aa19	-0.11946506
62	0xbd055d14	-0.03255947
63	0x3c2deeb6	0.010615995
64	0xbcaf58e6	-0.021404695
65	0xbb94b749	-0.004538451
66	0x3c5430e9	0.012951114
67	0xbb7b4490	-0.0038340427
68	0xbda7d6f0	-0.08195293
69	0xbc6ad10e	-0.014332069
70	0xbc3fdb96	-0.011710068
71	0x3ccea548	0.025225297
72	0xbe00336e	-0.12519619
73	0x3d560477	0.05225035
74	0xbd58ddbe	-0.052945845
75	0x3c8dd01d	0.01731115
76	0xbcee0e12	-0.029059444
77	0x3cf405a4	0.029787846
78	0x3dcfe656	0.10151355
79	0x3da1b4e9	0.07895834
80	0x3cd46460	0.025926769
81	0xbbaa5d2e	-0.005199096
82	0xbda6f930	-0.081529975
83	0xbd1692c3	-0.036761057
84	0x3db5e031	0.08880652
85	0xbcd4918f	-0.025948314
86	0x3d226d7b	0.03965519
87	0x3bc98852	0.006150284
88	0x3cea2c5f	0.02858561
89	0xbd30b3e0	-0.043140292
90	0xbdb3b9e9	-0.08775694
91	0x3dde8c46	0.10866599
92	0x3cc9e8aa	0.024647076
93	0xbc50f372	-0.012753354
94	0x3de5f157	0.112276725
95	0xbdc5d4a1	-0.09659696
96	0x3e02036a	0.12696615
97	0xbdd39831	-0.103317626
98	0x3d70d9af	0.05880135
99	0xbd061df7	-0.03274342
100	0xbe1c5436	-0.15266499
101	0xbe03d196	-0.1287292
102	0xbe162f7e	-0.14666554
103	0x3ce7e828	0.028308943
104	0x3b9b92ff	0.004747748
105	0x3d4d1e4d	0.050077725
106	0x3ceb092f	0.028690903
107	0xbda40056	-0.080078766
108	0xbe2ba99f	-0.16763924
109	0xbd3ff987	-0.046868827
110	0xbe20db7d	-0.15708728
111	0xbcbe97e0	-0.023265779
112	0x3d9e1c6f	0.07720267
113	0x3d946b6f	0.07247054
114	0x3dcf38a7	0.101182275
115	0xbda3080c	-0.07960519
116	0xbde272c6	-0.110570475
117	0xbd3456fb	-0.044028264
118	0xbd9972aa	-0.074925736
119	0xbdfedf03	-0.1244488
120	0xbdf0e313	-0.11762061
121	0xbd9e661d	-0.0773432
122	0x3d5b279e	0.05350458
123	0x3df6e884	0.120560676
124	0xbe0e2059	-0.13879527
125	0xbd666d92	-0.05625684
126	0x3d3da777	0.046302285
127	0xbc0ce10b	-0.008598576
128	0x3d85bea4	0.065305024
129	0xbc8475c9	-0.016169446
130	0xbcb2556f	-0.021769254
131	0xbd14a56b	-0.036290567
132	0x3d84547c	0.064614266
133	0x3d9d7a58	0.07689351
134	0xbe06838d	-0.1313612
135	0x3db23a20	0.08702493
136	0xbc522a80	-0.012827516
137	0xbc81ec66	-0.015859794
138	0xbd1606fc	-0.036627755
139	0x3d050a3b	0.03248046
140	0x3bf14196	0.007362555
141	0xbd58b655	-0.05290826
142	0x3d94b0e2	0.072603
143	0xbc5d4b84	-0.013506774
144	0x3df9a51f	0.121896975
145	0x3ccaef2d	0.024772251
146	0x3cc984db	0.024599483
147	0xbca9a6cb	-0.020709416
148	0xbcbee39d	-0.023301894
149	0x3d040ce9	0.032238875
150	0x3e0fd554	0.14046222
151	0xbdfdf0e6	-0.12399463
152	0x3d314bd8	0.04328522
153	0xbd8d2c42	-0.06893207
154	0xbd659ead	-0.05605953
155	0x3dbae52b	0.091257416
156	0x3d4b21e1	0.049592856
157	0x3d353199	0.044236753
158	0xbd88186e	-0.066452846
159	0x3d87a860	0.06623912
160	0x3cd9a2c7	0.026566876
161	0x3d874c29	0.06606323
162	0xba801cb9	-0.0009774185
163	0xbbab5727	-0.005228895
164	0x3df199c7	0.11796909
165	0x3c066e0c	0.008204948
166	0xbdcfeca0	-0.101525545
167	0xbcb3d5f7	-0.021952612
168	0x3d353fc3	0.04425026
169	0x3cb5ed69	0.022207933
170	0xbd509448	-0.050922662
171	0x3caa76d2	0.020808611
172	0x3d5e958d	0.05434184
173	0x3cf22956	0.029560726
174	0xbcc6b717	-0.024257226
175	0xbcb7be41	-0.022429587
176	0x3d4b5b9e	0.04964792
177	0xbce3fa3d	-0.027829284
178	0xbbb74fde	-0.0055942377
179	0xbc9dd1f6	-0.019265156
180	0x3d0da51c	0.03458129
181	0x3dbddd53	0.0927073
182	0x3e3e3797	0.18575893
183	0xbdc057d9	-0.093917556
184	0xbd603a70	-0.05474323
185	0x3d4d67a8	0.050147682
186	0xbd8c5350	-0.06851828
187	0xbc6218e8	-0.013799883
188	0xbd2decea	-0.042462267
189	0xbe10105a	-0.14068738
190	0xbda5f7e2	-0.081039205
191	0x3d37b1b3	0.0448472
192	0xbb993e47	-0.0046766135
193	0x3c841e4e	0.016127732
194	0x384632ec	4.7254303e-05
195	0x3df13156	0.11776988
196	0xbd97e73f	-0.074171536
197	0x3c92c719	0.017917203
198	0x3cfe9bc7	0.03108014
199	0xbd485deb	-0.048917692
200	0xbda51e8d	-0.08062468
201	0xbd478283	-0.04870845
202	0xbde44f44	-0.11147931
203	0xbd72b880	-0.059257984
204	0xbcef9336	-0.029245
205	0xbda51992	-0.08061518
206	0xbe0feec3	-0.14055924
207	0xbbf4bab2	-0.007468545
208	0xbc975f83	-0.01847816
209	0xbd9aa294	-0.075505406
210	0x39e155a6	0.00042979157
211	0x3d1d4c09	0.03840259
212	0xbdd49b18	-0.10381144
213	0xbcdcd5f4	-0.02695749
214	0xbe1a7ca2	-0.15086606
215	0x3e19c85d	0.15017839
216	0xbd89e576	-0.06733219
217	0xbd17cadc	-0.037058696
218	0x3d748e17	0.05970582
219	0xbcf5bc54	-0.029997028
220	0xbde02523	-0.10944583
221	0x3d4cae0b	0.049970668
222	0x3b1102ac	0.0022126837
223	0xbd93dff8	-0.07220453
224	0xbbccc61b	-0.006249202
225	0x3da4d53c	0.08048484
226	0xbdaf3732	-0.085554495
227	0xbd341096	-0.04396113
228	0x3901f214	0.0001239258
229	0xbda554d0	-0.08072817
230	0x3d362188	0.04446557
231	0xbd422def	-0.047407087
232	0xbdd8a6ce	-0.105786905
233	0xbdd7f6de	-0.10545133
234	0xbe08e44a	-0.13368335
235	0xbcd14371	-0.025544854
236	0xbcf22e4a	-0.029563088
237	0xbd7aafcc	-0.06120281
238	0xbd11bc73	-0.03558011
239	0x3c26952c	0.010167401
240	0x3e2223a9	0.15833916
241	0x3b15d41a	0.0022862018
242	0xbe469428	-0.19392455
243	0x3e2223bc	0.15833944
244	0xbcccbebe	-0.024993297
245	0x3d0bad9d	0.034101117
246	0x3e3c919d	0.18414922
247	0xbd7d9d40	-0.061917543
248	0xbe001ec3	-0.12511735
249	0x3d3b9601	0.04579735
250	0x3c008af7	0.007845632
251	0xbe4b80d5	-0.19873364
252	0xbca9f4d6	-0.02074663
253	0x3d6556a8	0.055990845
254	0xbe88dc39	-0.26730517
255	0x3d3a845c	0.045536384

conv4.0.bias f4 [64]
0	0x3d14bb9d	0.036311734
1	0x3da440cc	0.080201715
2	0xbdab2a64	-0.08357695
3	0xbd3ba5b1	-0.045812313
4	0x3cb5c42c	0.022188269
5	0xbddf5ba2	-0.109061494
6	0x3d6ace56	0.057325684
7	0xbcf9b831	-0.030483337
8	0x38c54a20	9.407499e-05
9	0x3c7bd0f0	0.015369639
10	0x3d05c3ce	0.032657437
11	0xbe339b34	-0.17539674
12	0x39e46c06	0.00043568033
13	0xbd3bfa5c	-0.04589306
14	0x3d0b2072	0.03396649
15	0xbc4d442a	-0.012528459
16	0xbc9789d1	-0.018498333
17	0xbc9f198b	-0.01942136
18	0xbdc0c7a7	-0.09413081
19	0xbc77f821	-0.015134842
20	0x3cd59b3c	0.026074998
21	0x3d118965	0.03553142
22	0xbd6e406e	-0.058166914
23	0xbd4dc7da	-0.05023942
24	0x3cd5ea69	0.026112752
25	0xbc330aac	-0.010927837
26	0x3c34ec61	0.011042685
27	0xbc458d7c	-0.012057658
28	0xbd402188	-0.046906978
29	0xbaad9082	-0.0013241919
30	0xbdbd8c20	-0.09255242
31	0x3cf1e815	0.02952961
32	0xbca916bf	-0.020640729
33	0xbddd692f	-0.10811078
34	0xbc20405a	-0.009780968
35	0x3b25505b	0.0025224898
36	0xbe134f12	-0.14385632
37	0x3caeba55	0.021329084
38	0xbd628c40	-0.055309534
39	0x3cc7a409	0.02437021
40	0x3d2c0129	0.041993294
41	0x3d43f98a	0.0478454
42	0xbd81fab2	-0.063466445
43	0xbd818c93	-0.063256405
44	0x3c768ebf	0.015048682
45	0xbccaf234	-0.024773695
46	0x3d3a7298	0.04551944
47	0x3cecb3c9	0.028894322
48	0xbc31e439	-0.010857635
49	0xbc040d7f	-0.008059858
50	0x3bc410b9	0.005983439
51	0x3ca6d30b	0.020364305
52	0xbd1e518b	-0.038651984
53	0x3cbe0f15	0.023200551
54	0xbc9c449a	-0.01907568
55	0xbd491c2f	-0.049099144
56	0x3a92e570	0.0011207294
57	0xbd8ac62e	-0.06776081
58	0xbdc28e1b	-0.09499761
59	0xbd60c691	-0.054876868
60	0xbdc76413	-0.097358845
61	0xbc39eeae	-0.01134841
62	0xbd84e4de	-0.064889655
63	0xbcf684d0	-0.030092627

fc.weight f4 [1, 64]
0	0xbf15c30c	-0.5850074
1	0xbf1e0347	-0.6172375
2	0x3eb078d4	0.34467185
3	0x3e9bf940	0.304636
4	0xbea34332	-0.31887203
5	0x3f285614	0.65756345
6	0xbe805aa4	-0.25069153
7	0x3ecfbf91	0.4057584
8	0x3ecd3851	0.40082029
9	0xbddae507	-0.10688215
10	0xbe6233d2	-0.2209008
11	0x3f24e73f	0.64415354
12	0xbe4835fd	-0.19551845
13	0x3f1be0d9	0.60889965
14	0x3e4c5977	0.19956003
15	0x3e7f9616	0.24959597
16	0x3ea275dc	0.31730545
17	0xbec91744	-0.39275563
18	0x3e833f15	0.25634065
19	0x3e9661fa	0.29371625
20	0x3e60bac7	0.2194625
21	0x3eb91966	0.3615219
22	0x3eb09a41	0.34492686
23	0xbf3e7371	-0.743949
24	0xbf42c320	-0.7607899
25	0x3f4d91c3	0.8030054
26	0x3eafeb19	0.34359053
27	0xbebc3d9a	-0.36765748
28	0xbf7493eb	-0.95538205
29	0xbe88c04b	-0.26709208
30	0xbf2d3f36	-0.6767458
31	0xbe7a6d31	-0.24455716
32	0x3f15f29e	0.5857333
33	0x3ec11890	0.37714052
34	0xbf148aa2	-0.58024037
35	0x3e8750ac	0.26428735
36	0x3f081b68	0.5316682
37	0xbee8c8ff	-0.45465848
38	0x3e8dbe54	0.2768427
39	0xbe5b6a3a	-0.21427241
40	0xbef6cbc2	-0.4820233
41	0x3ebd4847	0.36969206
42	0x3f0fe528	0.5620904
43	0x3efed84b	0.49774393
44	0x3e87412b	0.26416907
45	0xbec1f332	-0.37880856
46	0xbe3fafe8	-0.18719447
47	0x3e8486f8	0.25884223
48	0xbf23b2c5	-0.63944656
49	0x3eac689f	0.3367357
50	0xbf181901	-0.5941315
51	0x3ea91630	0.3302474
52	0x3e8357ae	0.25652832
53	0x3e8e9945	0.2785131
54	0xbf24e162	-0.64406407
55	0xbf21e81b	-0.6324479
56	0xbf01f81e	-0.5076922
57	0x3ed1d144	0.4097997
58	0x3ef56190	0.47925997
59	0x3e8a0f7c	0.2696494
60	0x3e992bdf	0.29916283
61	0xbf3075cf	-0.6892976
62	0x3eb8022c	0.35939157
63	0x3e7ac246	0.24488172
