api/90.pth (torch_old, 100141 bytes, 9 tensors)

conv1.0.weight f4 [8, 3, 3, 3]
0	0x3ec0354e	0.37540668
1	0xbd151ac3	-0.036402475
2	0xbe974ce6	-0.29550856
3	0x3e12b7cb	0.14327924
4	0x3e0148eb	0.12625472
5	0xbe71fdd2	-0.23631981
6	0x3ed598cc	0.41718137
7	0xbd8f3b69	-0.069937535
8	0xbeab0ae2	-0.3340674
9	0x3e58d5cf	0.21175312
10	0xbd4aa6b5	-0.04947539
11	0xbe56a3ae	-0.20960876
12	0x3e096b91	0.1341994
13	0x3dd8dfd1	0.105895646
14	0x3e771f18	0.24132955
15	0xbe791077	-0.24322687
16	0xbea394fb	-0.319496
17	0x3da7196c	0.08159146
18	0x3dee3e30	0.11632955
19	0xbd5e63ef	-0.054294523
20	0xbea38d7e	-0.31943887
21	0xbd6cd78a	-0.05782274
22	0x3dbddbbd	0.092704274
23	0x3e2124e1	0.15736724
24	0x3e3a16f2	0.18172815
25	0xbdbfc850	-0.093643785
26	0xbe0dba81	-0.13840677
27	0xbbc45d46	-0.0059925644
28	0xbdd13e6e	-0.10216986
29	0x3dbd2a4d	0.09236584
30	0x3e16d2cd	0.14728852
31	0x3e1b9243	0.15192513
32	0xbd2f7353	-0.04283459
33	0x3e21f85c	0.15817398
34	0x3c51c355	0.012802918
35	0x3d37dcb1	0.044888202
36	0x3e59266d	0.21206065
37	0xbe08b5f1	-0.13350655
38	0xbd4d5630	-0.050131023
39	0x3bf392a9	0.0074332547
40	0xbd358b3d	-0.04432224
41	0x3e4f25e2	0.20229295
42	0x3d9ababf	0.0755515
43	0x3e5a78c9	0.21335138
44	0xbc887864	-0.01665897
45	0x3c1e30ed	0.0096552195
46	0x3e169ed8	0.14709032
47	0xbd48dca2	-0.049038537
48	0x3e445130	0.19171596
49	0xbbb010d5	-0.0053731003
50	0xbe0f7c0c	-0.14012164
51	0xbd8a0479	-0.06739134
52	0xbd82bbd4	-0.063834816
53	0xbd1f890b	-0.038949054
54	0xbe62fb8c	-0.2216627
55	0xbe91fb5f	-0.28512093
56	0xbe078d7f	-0.1323757
57	0x3ca1c0dd	0.019745285
58	0xbe1700a5	-0.1474634
59	0xbd8fe5e2	-0.070262685
60	0xbe86c82b	-0.2632459
61	0xbd9f3600	-0.077739716
62	0xbe3f5ff1	-0.18688942
63	0x3e91ed14	0.2850119
64	0x3e0316b6	0.12801632
65	0x3e4eb9f9	0.2018813
66	0x3daba949	0.08381898
67	0xbe0bfaae	-0.13669845
68	0x3ecc5db4	0.3991524
69	0x3d23b963	0.03997172
70	0xbdd485c4	-0.10377076
71	0x3e55a2e7	0.20862924
72	0x3d629ccf	0.055325326
73	0x3dc73404	0.09726718
74	0x3e151f72	0.14562777
75	0x3e2bfe44	0.16796213
76	0xbe8c824f	-0.27443168
77	0x3ebf499d	0.3736085
78	0xbe17d5e7	-0.14827691
79	0x3c34a640	0.011025965
80	0x3c1ab10d	0.009441626
81	0xbeaf06ba	-0.3418482
82	0xbec9b913	-0.39399013
83	0x3dbf8bcb	0.09352835
84	0xbda75015	-0.08169571
85	0xbe9473c5	-0.28994575
86	0xbe26e1a9	-0.1629702
87	0x3e7b4394	0.24537498
88	0x3d6cb0fd	0.057785977
89	0xbeafeab8	-0.34358764
90	0xbe82cf70	-0.25548887
91	0x3e6c9d69	0.23106922
92	0x3e04e6cb	0.12978666
93	0x3d42e991	0.047586028
94	0x3de9219b	0.11383363
95	0xbd93f773	-0.072249316
96	0x3e7e21c5	0.2481757
97	0x3e13bf54	0.14428455
98	0x3c39bc44	0.01133639
99	0xbd1b8cce	-0.03797608
100	0xbe3aacfa	-0.18230048
101	0x3d9f15c0	0.0776782
102	0x3e0665d8	0.13124788
103	0xbde6e69e	-0.112744555
104	0xbe5159ce	-0.20444414
105	0x3e73a2b2	0.23792532
106	0xbd599027	-0.05311599
107	0xbb317b49	-0.002708154
108	0x3e57d7ca	0.2107841
109	0xbe8200ba	-0.2539118
110	0xbe9d9a6e	-0.30781883
111	0xbe46d918	-0.19418752
112	0xbdeaf086	-0.114716575
113	0xbda892f0	-0.08231151
114	0x3b95d9aa	0.0045730667
115	0xbd65f28d	-0.056139518
116	0x3e596431	0.21229626
117	0xbe943605	-0.28947464
118	0xbe4b0ded	-0.19829531
119	0x3e9e5ccf	0.30930182
120	0xbe85352c	-0.2601713
121	0xbcfcf247	-0.030877246
122	0x3e359710	0.17733407
123	0xbdc6bebe	-0.0970435
124	0x3e99a265	0.3000671
125	0x3eeb0ccc	0.459082
126	0xbe014711	-0.12624766
127	0xbc319121	-0.010837824
128	0x3e2c8bb7	0.16850172
129	0xbdd1bf95	-0.102416195
130	0xbe5c9c35	-0.21543963
131	0x3e0844e0	0.13307524
132	0xbe44c8aa	-0.19217172
133	0x3e1a6a44	0.150796
134	0x3eaaf3f1	0.33389238
135	0x3d906c9a	0.07051964
136	0x3cfddd44	0.030989297
137	0x3ecff5c8	0.40617204
138	0x3e1c4750	0.15261579
139	0x3c6a5b91	0.014304058
140	0x3e7a3c69	0.24437107
141	0x3e023037	0.12713705
142	0x3dd9f69d	0.10642741
143	0x3c2957db	0.010335888
144	0xbc2c6d06	-0.01052404
145	0xbe291a7f	-0.16514014
146	0xbe1fa0db	-0.15588705
147	0x3e04c403	0.12965398
148	0xbe9c3042	-0.30505568
149	0xbe17b5ad	-0.14815398
150	0xbe14bd60	-0.14525366
151	0xbea3b473	-0.3197361
152	0xbeac0ba0	-0.3360262
153	0xbd4a0c0a	-0.049327888
154	0xbe56297f	-0.20914267
155	0xbc099ac8	-0.008398719
156	0x3e434db5	0.19072612
157	0xbae90795	-0.0017778749
158	0x3e458384	0.1928845
159	0xbd83cf83	-0.06436064
160	0xbd3498af	-0.044090923
161	0xbe10a169	-0.14124073
162	0x3edf9a09	0.43672207
163	0xbd9afbcd	-0.075675584
164	0xbebef565	-0.37296596
165	0x3dbedf7c	0.0931997
166	0xbe72d74a	-0.23714939
167	0x3d947ca2	0.07250334
168	0x3e643735	0.22286685
169	0xbe0f6b67	-0.14005814
170	0x3e903563	0.2816573
171	0x3d8f03a0	0.06983113
172	0xbe7ccb95	-0.24687035
173	0xbe976fb3	-0.29577407
174	0x3ec3cae7	0.3824074
175	0xbe4c7f6e	-0.19970486
176	0xbe363391	-0.17793109
177	0x3e56c993	0.20975332
178	0xbdab1cad	-0.08355079
179	0x3d21bb27	0.039485123
180	0x3e01e9b2	0.12686804
181	0x3bdad374	0.006678039
182	0xbec1850f	-0.37796828
183	0x3eab559e	0.33463758
184	0xbc40635e	-0.011742441
185	0xbe013075	-0.12616141
186	0x3c96129b	0.018319419
187	0xbe6bc326	-0.23023662
188	0x3d03fce9	0.032223616
189	0x3f500494	0.81256986
190	0x3ebfd1ff	0.37464902
191	0xbeab11df	-0.33412072
192	0x3f51b70e	0.81919944
193	0x3f181b10	0.59416294
194	0xbe44f32c	-0.19233388
195	0x3f2d2111	0.6762858
196	0x3f060164	0.5234587
197	0xbe8ec987	-0.27888128
198	0xbe9247fa	-0.2857054
199	0xbe87740f	-0.26455733
200	0x3d195638	0.03743574
201	0xbe3e10c6	-0.18561086
202	0x3c831008	0.015998855
203	0xbde81e01	-0.11333848
204	0x3dda42b0	0.10657251
205	0xbd868acb	-0.065694414
206	0x3c96e4a7	0.018419577
207	0x3d86c792	0.06581034
208	0xbda9dcb2	-0.082940474
209	0xbdbfe2e9	-0.093694516
210	0xbde245b5	-0.11048452
211	0x3e28a133	0.16467743
212	0xbe96d149	-0.29456547
213	0x3e9d4ee7	0.3072426
214	0xbd9e2a7b	-0.07722946
215	0xbcd7312c	-0.026268564

conv1.0.bias f4 [8]
0	0x3deb9eff	0.115049355
1	0xbdcc16d7	-0.09965294
2	0x3ea8f676	0.33000535
3	0xbe4911d9	-0.19635715
4	0x3e940be7	0.2891533
5	0x3e501618	0.20320928
6	0x3d9b1a64	0.07573393
7	0x3c97392f	0.018459884

conv2.0.weight f4 [16, 8, 3, 3]
0	0x3e4435e8	0.19161189
1	0xbe10a7a8	-0.14126456
2	0xbdd257f0	-0.10270679
3	0x3dabb871	0.08384789
4	0xbb5e8ac3	-0.003395722
5	0x3d5f90d4	0.05458148
6	0xbd93fa62	-0.07225491
7	0x3e01826b	0.12647407
8	0x3adae625	0.0016700668
9	0x3db461e0	0.08807731
10	0x3d1e3ecb	0.038634103
11	0x3c80ed3f	0.015738128
12	0x3ddd825f	0.10815882
13	0x3bb61e9f	0.0055578495
14	0x3d9f873e	0.07789467
15	0xbd92b346	-0.071631
16	0xba0422e5	-0.00050406
17	0xbd9d9ca0	-0.076958895
18	0x3ef5bef3	0.47997245
19	0x3c6e237e	0.014534829
20	0xbdf99375	-0.12186328
21	0x3edeef5d	0.43541995
22	0x3ee5ce29	0.4488385
23	0x3e97d009	0.29650906
24	0x3eb1639f	0.34646317
25	0x3e6170e7	0.22015725
26	0x3e1a770b	0.15084474
27	0x3dbc89d3	0.092059754
28	0x3d3ce996	0.046121202
29	0x3ea0087a	0.31256467
30	0x3acebed5	0.0015773425
31	0xbdbcdaaf	-0.09221398
32	0x3e302d09	0.1720468
33	0x3d44ff28	0.0480949
34	0x3e192337	0.1495484
35	0x3def8f8e	0.11697303
36	0x3e88ea1c	0.2674111
37	0xbc967e8a	-0.018370885
38	0x3e4fb735	0.20284732
39	0x3e8c4ec7	0.27403852
40	0xbcd43c23	-0.025907582
41	0xbc70256b	-0.014657359
42	0x3daf29bf	0.08552884
43	0xbed7ae20	-0.42125034
44	0x3db82dab	0.089930855
45	0xbd13b6de	-0.036063068
46	0xbe6f141b	-0.23347513
47	0xbdf252b7	-0.11832183
48	0xbe98fb21	-0.29879096
49	0xbd859570	-0.065226436
50	0x3c69a449	0.01426036
51	0xbe7a6bd2	-0.24455193
52	0x3d03be0a	0.032163657
53	0xbcd677e0	-0.026180208
54	0xbd00bdf1	-0.031431142
55	0x3e7f9973	0.2496088
56	0xbe2bb775	-0.16769202
57	0xba2959ca	-0.0006460218
58	0xbda30d9d	-0.07961581
59	0x3a85214c	0.0010157018
60	0xbe1c6986	-0.15274629
61	0x3dc87bfe	0.09789275
62	0xbd23da07	-0.04000285
63	0xbe68bc1d	-0.2272801
64	0xbe25cc1b	-0.16191141
65	0x3e11f1f1	0.1425245
66	0xbdc2cd96	-0.09511869
67	0xbe84bf00	-0.2592697
68	0x3e59853b	0.2124223
69	0xbe0cb4ca	-0.1374084
70	0xbda85cf5	-0.08220855
71	0x3cc554f2	0.024088357
72	0xbe55412a	-0.2082564
73	0xbe984c76	-0.29745835
74	0x3d039907	0.03212836
75	0xbc564aab	-0.013079326
76	0xbdf4ba2a	-0.119495705
77	0xbe98c5fb	-0.29838547
78	0xbe1f2ec1	-0.15545179
79	0x3e87d54d	0.26529923
80	0xbd24780d	-0.04015355
81	0x3dc7bf97	0.0975334
82	0xbd6f5d45	-0.058438558
83	0xbda7a6d9	-0.081861205
84	0x3d4e678e	0.050391726
85	0xbd3f49e6	-0.046701334
86	0xbc9aae10	-0.018881828
87	0x3cf70724	0.030154772
88	0xbde808d2	-0.11329807
89	0x3de58a70	0.112080455
90	0x3d28202b	0.041046303
91	0x3d9b0fcd	0.07571373
92	0xbe0f98d7	-0.14023148
93	0xbdc8d863	-0.098068975
94	0x3eb8e4c2	0.36112028
95	0x3d36e45a	0.044651367
96	0x3e292ec0	0.1652174
97	0x3e705b2a	0.23472276
98	0x3cf69e34	0.030104734
99	0xbc1124da	-0.008858884
100	0x3bcae5e0	0.006191954
101	0xbdb8c394	-0.090216786
102	0x3d5058c8	0.05086592
103	0x3e210095	0.15722878
104	0xbd634de5	-0.055494208
105	0x3ca04fa6	0.01956923
106	0x3eb10a0a	0.34577972
107	0x3a7ef712	0.00097261474
108	0x3e8a2e1d	0.26988307
109	0xbe6af7d7	-0.22946106
110	0xbd86d915	-0.06584374
111	0x3dc395c8	0.09550053
112	0xbcada7be	-0.02119815
113	0xbebd75ed	-0.37004033
114	0x3ecba3c7	0.3977339
115	0x3d24f8e1	0.040276412
116	0xbde4ac8e	-0.11165725
117	0xbe8a033f	-0.26955602
118	0xbe167393	-0.14692526
119	0xbd809f89	-0.06280429
120	0xbe54b071	-0.20770432
121	0xbe34276e	-0.17593166
122	0x3e29b523	0.16573004
123	0xbe464a82	-0.1936436
124	0xbe46a1ea	-0.19397703
125	0xbdf43457	-0.119240455
126	0xbd1c4828	-0.03815475
127	0x3e1af7d8	0.15133607
128	0x3e45cd8b	0.1931669
129	0xbe160030	-0.14648509
130	0xbda0ddcd	-0.07854805
131	0xbdbe2a59	-0.09285421
132	0xbb6fd0cc	-0.0036592958
133	0x3aadabf0	0.0013250094
134	0x3b9fdd17	0.004878651
135	0xbe08d836	-0.13363728
136	0x3e88a6eb	0.26689848
137	0xbda72eeb	-0.08163246
138	0x3df72cd8	0.120691
139	0xbf067321	-0.5251942
140	0x3d757543	0.059926283
141	0x3cee65f7	0.029101355
142	0x3dc6888f	0.09694015
143	0x3e53fe97	0.20702587
144	0x3ea8a560	0.3293867
145	0xbe413c22	-0.18870595
146	0xbd4a94ab	-0.049458187
147	0x3e7a8219	0.24463691
148	0x3caa0d94	0.020758428
149	0xbe4ad332	-0.19807127
150	0x3dfdf6cc	0.124005884
151	0x3e3ed7e4	0.18637043
152	0xbd8a24ac	-0.06745276
153	0x3ddec178	0.10876745
154	0xbd9f2f08	-0.077726424
155	0xbde80a18	-0.1133005
156	0x3c455fbb	0.01204675
157	0x3da29601	0.07938767
158	0xbdad89bc	-0.08473536
159	0x3dc7f888	0.097642004
160	0x3df30464	0.11866072
161	0x3da0fbc2	0.07860519
162	0xbd65d830	-0.056114376
163	0x3e3ab9f8	0.18235004
164	0xbc2909dc	-0.010317292
165	0x3d31a5ed	0.04337113
166	0x3d2a2722	0.041541226
167	0xbe771a0a	-0.24131027
168	0x3d525812	0.05135352
169	0x3e541728	0.20711958
170	0x3e65cc65	0.22441252
171	0x3e13921c	0.14411205
172	0x3d347aed	0.044062544
173	0xbd49e7f8	-0.04929349
174	0xbd0f00ff	-0.03491306
175	0x3e2fc96e	0.17166683
176	0xbe2caf4d	-0.16863747
177	0x3cffaa59	0.031209158
178	0x3dd8e857	0.1059119
179	0xbe7398d9	-0.23788776
180	0x3c25a741	0.010110677
181	0x3e3c4c76	0.18388543
182	0xbe785496	-0.24251017
183	0x3ddb4018	0.10705584
184	0x3dae81bd	0.08520839
185	0xbedb9a9a	-0.4289139
186	0x3de685d7	0.11255997
187	0x3e1498e7	0.14511453
188	0xbe311eca	-0.17296901
189	0x3df01781	0.11723233
190	0xbe542b82	-0.20719722
191	0xbd5652ac	-0.052324936
192	0xbd28890a	-0.041146316
193	0xbe7cfdaa	-0.2470614
194	0xbdf37ddf	-0.118892424
195	0xbd393e6c	-0.045225546
196	0xbe9fcf9e	-0.31213087
197	0xbe4710d3	-0.19440012
198	0xbca12f63	-0.019675916
199	0x3e17db82	0.1482983
200	0x3b5ed66d	0.003400232
201	0x3d855003	0.06509402
202	0x3e1c4ccb	0.15263669
203	0x3e3696f1	0.17831017
204	0x3e175f0a	0.14782348
205	0x3e2225d7	0.15834747
206	0xbb418b17	-0.0029532367
207	0x3ee4d61b	0.446946
208	0xbd19102a	-0.03736893
209	0xbebb6849	-0.36603
210	0x3e59ff73	0.21288852
211	0xbe17bd6b	-0.14818351
212	0xbce46e72	-0.027884696
213	0x3eaf5e60	0.3425169
214	0xbd13dca3	-0.036099087
215	0xbe70671f	-0.23476838
216	0xbe3aa2d5	-0.18226178
217	0xbdd645f6	-0.10462563
218	0x3d2a200d	0.041534472
219	0x3d00c55a	0.03143821
220	0x3dd350b7	0.103181295
221	0xbdbcca5f	-0.09218287
222	0x3d616496	0.055027567
223	0x3e08cace	0.13358614
224	0xbd27962e	-0.040914707
225	0xbdb470c2	-0.08810569
226	0x3d22dee3	0.039763343
227	0xbd8deba2	-0.06929709
228	0x3d630e8d	0.0554338
229	0xbb09c652	-0.002102275
230	0x3dc66d29	0.096887894
231	0x3dadf05a	0.08493109
232	0xbba0318f	-0.0048887203
233	0xbcc7db4d	-0.024396563
234	0x3df114e5	0.117715634
235	0x3e8a52ef	0.27016398
236	0x3e70dbd5	0.2352136
237	0x3e827d3f	0.2548618
238	0x3d847bd8	0.06468934
239	0x3ebb91ba	0.36634618
240	0xbe28c8db	-0.1648287
241	0xbd1bc4ac	-0.038029358
242	0x3e1089c7	0.14115058
243	0x3bc2f558	0.0059496574
244	0x3e2ce5fc	0.16884607
245	0xbe4ab3ce	-0.19795153
246	0x3e4f7007	0.20257579
247	0xbd01c202	-0.03167916
248	0xbcc4b0f7	-0.024010165
249	0x3e83adb4	0.25718462
250	0xbd466a09	-0.048440967
251	0xbe91160a	-0.28337127
252	0x3e78f050	0.24310422
253	0x3e878c0d	0.26474038
254	0xbe5d7e1d	-0.2163014
255	0xbe101742	-0.14071372

conv2.0.bias f4 [16]
0	0xbdac7d90	-0.08422387
1	0x3d3a3b41	0.045466665
2	0xbe12c7c7	-0.14334022
3	0x3dadff51	0.08495963
4	0xbd94a8ad	-0.07258735
5	0x3e18bcf3	0.14915828
6	0xbd2e2c1c	-0.042522535
7	0xbd248190	-0.040162623
8	0x3e17fa8b	0.14841668
9	0xbe209f33	-0.1568573
10	0x3e0fd62c	0.14046544
11	0xbe38b5b1	-0.1803806
12	0xbe13e2db	-0.14442007
13	0xbe0d3061	-0.13787986
14	0xbdd57697	-0.1042301
15	0xbdd6afbb	-0.10482737

conv3.0.weight f4 [32, 16, 3, 3]
0	0x3d33f160	0.043931365
1	0x3e0e0baf	0.13871644
2	0x3d186b68	0.037211806
3	0xbe5a2476	-0.21302971
4	0xbd994f36	-0.074858114
5	0xbbe3f4e2	-0.0069566825
6	0x3ddda841	0.108231075
7	0xbc84771a	-0.016170073
8	0x3e1f0b99	0.15531768
9	0xbdc34eff	-0.09536552
10	0xbea540a0	-0.32275867
11	0xbe005f3b	-0.12536328
12	0x3d6c7331	0.057727043
13	0xbea2f01a	-0.31823808
14	0x3d75fb12	0.060053892
15	0xbdc37fda	-0.0954587
16	0x3e56a212	0.20960262
17	0xbd3ed0c5	-0.046585817
18	0xbcb135c6	-0.021632086
19	0x3e4b1cb5	0.1983517
20	0xbe10f9e5	-0.14157827
21	0xbe52989c	-0.20566028
22	0x3c9d66f5	0.019214133
23	0x3d77bc94	0.060482576
24	0xbd8ab91d	-0.06773589
25	0x3d56913d	0.052384604
26	0xbe05b954	-0.13058978
27	0xbe822eac	-0.25426233
28	0xbc646eff	-0.013942479
29	0x3d8e5b8d	0.06951056
30	0xbe3e9d49	-0.18614687
31	0xbdd789c2	-0.10524322
32	0xbda99b4c	-0.08281574
33	0x3d870372	0.06592454
34	0x3e3af127	0.18256055
35	0x3d1de515	0.038548548
36	0x3e02c439	0.12770166
37	0xbdee0556	-0.116221115
38	0xbe3d6685	-0.1849614
39	0xba8ace49	-0.0010590042
40	0x3d9e32ca	0.07724531
41	0x3d3eaa18	0.046548933
42	0x3e2b75d6	0.1674417
43	0xbd906907	-0.070512824
44	0xbb65c37d	-0.0035059147
45	0xbcd01d09	-0.02540447
46	0xbdfe7aaa	-0.1242574
47	0x3c1f08fb	0.009706731
48	0x3e0596c3	0.13045792
49	0x3da928ef	0.082597606
50	0xbd2a324e	-0.04155188
51	0xbc1815bc	-0.009282526
52	0xbac67f6a	-0.0015144174
53	0x3d674cbb	0.05646966
54	0xbccd8f34	-0.025092699
55	0xbdbc9b2d	-0.09209285
56	0x3d8859ad	0.06657729
57	0xbd98c111	-0.074586995
58	0x3da3dee9	0.08001501
59	0xbd1bf1bb	-0.03807233
60	0x3d7fc905	0.062447567
61	0x3e2b615d	0.1673636
62	0xbd51f7e8	-0.051261812
63	0x3dab5b5b	0.08367034
64	0x3d0ac80f	0.033882197
65	0xbe038825	-0.12844904
66	0xbcfd342c	-0.030908667
67	0x3d8e6655	0.06953112
68	0xbe3ed67f	-0.18636511
69	0x3d8e9bc0	0.06963301
70	0xbde9102c	-0.11380038
71	0xbd1d8735	-0.03845902
72	0xbe26c10f	-0.16284584
73	0xbde52974	-0.11189547
74	0xbda54f16	-0.08071725
75	0xbd716025	-0.05892958
76	0xbe50896b	-0.20364921
77	0xbdd5738d	-0.1042243
78	0xbd3cd1a7	-0.046098378
79	0xbc115ece	-0.008872701
80	0xbe502df0	-0.20330024
81	0x3dc8a0d1	0.09796298
82	0x3e27f892	0.16403416
83	0xbbb3c866	-0.005486536
84	0x3db3f2f2	0.087865725
85	0x3dce9eae	0.100888595
86	0x3d57bc09	0.05266956
87	0x3e4cb49b	0.1999077
88	0x3d97293b	0.07380911
89	0x3e57e92c	0.21085042
90	0x3dd7609b	0.10516473
91	0xbc0a793c	-0.008451756
92	0x3e4ee456	0.20204291
93	0xbe77e59c	-0.24208683
94	0xbd8815da	-0.06644793
95	0x3d1c67fc	0.038185105
96	0x3d84ccdc	0.06484386
97	0xbe40e2d8	-0.18836534
98	0xbdac2b06	-0.084066436
99	0x3dd95b50	0.106131196
100	0x3e277d47	0.16356383
101	0xbdfd6a43	-0.123737834
102	0xbc611219	-0.013737225
103	0xbcc2ca64	-0.023778148
104	0xbe352283	-0.17688946
105	0xbe038835	-0.12844928
106	0xbde74d90	-0.11294091
107	0x3e1fc6f3	0.15603237
108	0xbb90b1e8	-0.0044157393
109	0x3e5e8461	0.21730186
110	0xbdb99bb5	-0.09062902
111	0x3e169e86	0.1470891
112	0x3db144e1	0.08655716
113	0xbd9a3a82	-0.07530691
114	0xbe58c88e	-0.21170256
115	0x3b9d0538	0.004791882
116	0xbd64afe6	-0.055831812
117	0x3daf1d6a	0.08550532
118	0xbd80992f	-0.062792175
119	0xbd46df01	-0.048552517
120	0xbc384dc5	-0.01124901
121	0xbdbd8070	-0.09253013
122	0xbd9005f1	-0.07032383
123	0xbc6ea63d	-0.0145660015
124	0xbdfd6ccf	-0.12374269
125	0x3e5384cd	0.20656128
126	0x3e057a9b	0.13035052
127	0x3cc20464	0.023683734
128	0xbe856c95	-0.26059404
129	0x3e59ce1f	0.21270035
130	0x3ca578e6	0.02019925
131	0xbcf41ec9	-0.029799836
132	0xbe114a11	-0.1418841
133	0xbd874ff3	-0.06607046
134	0x3e3fc26a	0.18726507
135	0xbbc73822	-0.0060796896
136	0xbdcd9a10	-0.10039151
137	0xbd3e3581	-0.046437744
138	0x3e6c056a	0.2304894
139	0xbe3cdc10	-0.18443322
140	0xbbbc0982	-0.005738438
141	0x3db4c0b8	0.08825821
142	0x3e4e4b1f	0.20145844
143	0x3dedd4b3	0.11612835
144	0xbe405f1a	-0.18786278
145	0x3dfe5812	0.12419142
146	0xbe48c616	-0.19606814
147	0x3d27bbf8	0.040950745
148	0x3bb813f4	0.005617613
149	0xbc598d3f	-0.013278305
150	0x3c2482b6	0.01004093
151	0x3db5c352	0.08875145
152	0x3e2d024b	0.16895406
153	0x3c730a88	0.014834054
154	0x3cb78115	0.022400418
155	0x3c318535	0.010834982
156	0x3e3cc0d7	0.18432938
157	0xbdb712d6	-0.089391395
158	0xba998252	-0.0011711812
159	0x3e09f50a	0.13472381
160	0x3df8deb0	0.12151849
161	0xbe26033b	-0.1621217
162	0xbe4b6356	-0.19862112
163	0xbe95e56f	-0.29276606
164	0x3d324ead	0.043532062
165	0xbc35620e	-0.011070741
166	0x3c92527d	0.0178616
167	0xbd2032d5	-0.039110977
168	0xbe282373	-0.16419773
169	0x3cfd813f	0.030945418
170	0x3d2a9f60	0.041655898
171	0x3ce3f0a8	0.027824715
172	0x3e4a1470	0.19734359
173	0x3cd861d4	0.026413836
174	0x3d26937d	0.040668
175	0xbe107add	-0.14109369
176	0x3c01b298	0.007916115
177	0x3e064981	0.13113977
178	0x3d2aaef8	0.04167077
179	0x3e04d853	0.12973146
180	0x3deb5ee4	0.11492708
181	0x3d81a5e8	0.06330472
182	0xbc4b8863	-0.012422654
183	0xbe303e4a	-0.17211261
184	0x3d667e00	0.056272507
185	0xbd297335	-0.041369636
186	0xbc34cb82	-0.011034848
187	0x3dfe13d8	0.12406129
188	0xbe547849	-0.2074901
189	0x3db8094f	0.089861505
190	0xba3233d6	-0.0006797885
191	0x3d5f7f9f	0.05456507
192	0xbd8dd668	-0.0692566
193	0xbc82d2f7	-0.015969737
194	0xbdb19514	-0.086710125
195	0x3d85beb1	0.06530512
196	0xbe465219	-0.19367255
197	0xbdd496aa	-0.103802994
198	0xbad1a5aa	-0.0015994806
199	0xbddc2908	-0.107500136
200	0xbe42c520	-0.1902051
201	0x3cb917ff	0.02259445
202	0x3d12b3dd	0.035816062
203	0x3c648272	0.013947116
204	0xbd3acc85	-0.0456052
205	0x3ddf3cb8	0.10900253
206	0x3e5a50c3	0.2131987
207	0x3dc5c315	0.096563496
208	0x3dd0f10b	0.10202225
209	0xbe0745c0	-0.13210201
210	0x3d94153e	0.07230614
211	0xbe045d87	-0.12926303
212	0xbe24a9cc	-0.16080397
213	0x3bdb30fb	0.0066891885
214	0x3b5e8441	0.0033953341
215	0x3df4b97b	0.1194944
216	0xbcf23956	-0.029568356
217	0xbe1aafe6	-0.15106162
218	0x3de19788	0.110152304
219	0x3e360d7d	0.17778583
220	0xbe3c7b53	-0.1840642
221	0xbd7576ba	-0.05992768
222	0x3d91eba4	0.07125023
223	0x3a5e6b51	0.00084846193
224	0xbd806d79	-0.0627088
225	0xbdaf6d5c	-0.085657805
226	0x3c3eef79	0.011653774
227	0x3e52e47a	0.2059497
228	0x3cb0c9f4	0.021580674
229	0x3b2dba51	0.0026508758
230	0xbdaaf629	-0.083477326
231	0x3e021406	0.12702951
232	0x3d55aa78	0.052164525
233	0xbddbd3f4	-0.10733786
234	0xb98bdaf1	-0.0002667527
235	0xbcfef842	-0.031124238
236	0xbd134527	-0.03595462
237	0x3cf66245	0.030076155
238	0xbe0cc7f7	-0.13748156
239	0xbe1f1c40	-0.1553812
240	0x3d5d6d5d	0.054059375
241	0x3e3c4596	0.1838592
242	0xbe35297e	-0.1769161
243	0x3d4f4b2d	0.050608803
244	0x3e1b9be6	0.1519619
245	0xbdeeda5e	-0.11662744
246	0xbd8c4456	-0.068489715
247	0x3d180f4b	0.03712396
248	0x3e6d24bf	0.23158549
249	0xbdfb4912	-0.122697964
250	0x3d837edd	0.064206816
251	0x3dadf49a	0.0849392
252	0x3d65acb4	0.056072906
253	0x3de0578d	0.10954199
254	0x3dac6607	0.08417898
255	0xbd429f31	-0.047515098

conv3.0.bias f4 [32]
0	0xbcdf9c24	-0.027296133
1	0xbd825f4f	-0.06365835
2	0xbe08278e	-0.13296339
3	0x3d41811c	0.04724227
4	0xbe04c929	-0.12967362
5	0x3c047f50	0.008086994
6	0xbd929e62	-0.071591154
7	0xbe52aaea	-0.20573011
8	0xbda20196	-0.07910459
9	0x3dca62ae	0.09882103
10	0xbdf23edb	-0.11828395
11	0x3dcb45c4	0.09925416
12	0xbe483f3b	-0.1955537
13	0xbd1cb73f	-0.038260695
14	0xbea698af	-0.32538363
15	0xbe47e144	-0.19519526
16	0xbe34a9e7	-0.17642938
17	0xbc9fc8cf	-0.019504933
18	0x3cfe2584	0.031023748
19	0xbd967e99	-0.07348365
20	0xbdfc2fb2	-0.12313785
21	0xbe205314	-0.15656692
22	0x3b8af487	0.0042405757
23	0xbe6ea482	-0.23304942
24	0xbda7004d	-0.08154354
25	0x3e0f77b9	0.14010514
26	0x3d5eb00b	0.054367106
27	0x3d81aaf3	0.06331434
28	0xbe1b5122	-0.15167668
29	0xbde0bea1	-0.109738596
30	0xbe03da9c	-0.12876362
31	0xbe882a56	-0.265948

conv4.0.weight f4 [64, 32, 3, 3]
0	0x3c230aca	0.009951303
1	0x3c089b2a	0.008337775
2	0x3ce7e376	0.028306704
3	0xbd3c3459	-0.04594836
4	0x3e0f8ff5	0.14019759
5	0x3d9fc71a	0.078016475
6	0x3def0df9	0.11672587
7	0xbd44dfaf	-0.048064884
8	0xbddbf255	-0.107395805
9	0xbc443237	-0.011974863
10	0x3ce4b018	0.027916
11	0x3e09d6f2	0.13460901
12	0xbd0fe6db	-0.03513227
13	0x3d80e3d1	0.062934525
14	0xbcf5ea75	-0.030019024
15	0x3e27cc1f	0.1638646
16	0xbe4aad84	-0.19792753
17	0xbc39a479	-0.011330717
18	0x3cce02e6	0.025147866
19	0x3e1fcf74	0.15606481
20	0x3ddc282f	0.10749852
21	0xbcb19532	-0.021677587
22	0x3d1d2dc3	0.03837372
23	0xbd94365c	-0.07236931
24	0xbc2a72aa	-0.010403315
25	0x3e7dc35f	0.2478156
26	0x3db0a4fa	0.08625217
27	0x3dbb3b1d	0.09142134
28	0xbd9079ca	-0.070544794
29	0x3c28820a	0.01028491
30	0xbd946381	-0.07245541
31	0xbe2cb711	-0.1686671
32	0xbd4a006c	-0.04931681
33	0x3d834a5c	0.06410667
34	0x3ebf43ab	0.37356314
35	0x3e176d5d	0.14787813
36	0xbcfdf3ab	-0.030999979
37	0xbd999840	-0.074997425
38	0x3e10696b	0.14102714
39	0xbe36d5ed	-0.17855044
40	0xbdfa6145	-0.12225584
41	0x3dabfbf6	0.08397667
42	0xbcae62b9	-0.021287309
43	0xbccf943c	-0.025339238
44	0x3dd9ea82	0.10640432
45	0x3c48d398	0.012257479
46	0xbdcb6cd9	-0.099328704
47	0xbcd0a3d2	-0.02546874
48	0xbd3e20fe	-0.046418183
49	0xbd9545e2	-0.0728872
50	0x3d95da0e	0.07316981
51	0x3d3b4f7f	0.04573011
52	0xbdc29f5a	-0.0950305
53	0xbdd06452	-0.101753846
54	0x3e029ff9	0.12756337
55	0x3dca5ef5	0.09881393
56	0x3dc6d779	0.09709067
57	0xbd058640	-0.032598734
58	0x3d30aa13	0.043130945
59	0x3d914931	0.07094038
60	0x3d1eec9f	0.03879988
61	0xbdc12236	-0.09430353
62	0xbdb338ff	-0.087511055
63	0xbcea193d	-0.028576488
64	0xbd6dfbac	-0.05810134
65	0xbdd5a348	-0.10431534
66	0xbc024a91	-0.007952348
67	0xbbd4bcda	-0.0064922394
68	0xbd9b0b0b	-0.07570466
69	0x3c85ecea	0.016348321
70	0x3d4e8724	0.05042185
71	0x3cb6b8c4	0.0223049
72	0xbe40548c	-0.18782252
73	0x3e00946b	0.12556617
74	0xbda7be4b	-0.081905924
75	0xbd10b657	-0.035330143
76	0xbe11dfda	-0.14245549
77	0x3c850c36	0.016241174
78	0x3d878905	0.06617931
79	0x3e2b2b55	0.16715749
80	0x3d8a889b	0.06764337
81	0xbd7e88f8	-0.062142342
82	0xbc83bb84	-0.016080625
83	0xbad60baf	-0.0016330386
84	0x3d0ac43d	0.033878554
85	0xbd8ef02d	-0.06979404
86	0x3d9a90a7	0.075471215
87	0x3d45484c	0.04816465
88	0x3cfe3014	0.031028785
89	0xbc593df3	-0.013259399
90	0xbcfa1da3	-0.03053171
91	0x3e1910b8	0.14947784
92	0x3d1451c1	0.03621078
93	0xbd2d16e7	-0.04225817
94	0x3ddeca0e	0.108783826
95	0xbb776a29	-0.0037752485
96	0x3e1f1c34	0.15538102
97	0xbdbd4fbb	-0.09243723
98	0x3de1b3e5	0.1102064
99	0x3be78200	0.0070650578
100	0xbe226d3b	-0.1586198
101	0xbda0af9a	-0.07845993
102	0xbe3f6b2b	-0.18693225
103	0xbc91f31f	-0.017816124
104	0x3d4a7e8e	0.0494371
105	0x3db06c9d	0.08614466
106	0x3d7876d4	0.0606602
107	0xbe0ca35b	-0.1373419
108	0xbe5829c3	-0.21109681
109	0xba4ed2c3	-0.00078896823
110	0xbe96a5c9	-0.2942336
111	0xbd6b0064	-0.05737342
112	0x3dd335e1	0.10313011
113	0x3ddf5fb0	0.10906923
114	0x3e1ccf46	0.15313444
115	0xbdefca5d	-0.117085196
116	0xbdcbb546	-0.099466845
117	0xbc76c920	-0.0150626
118	0xbdeda15e	-0.11603044
119	0xbe21f3d7	-0.15815674
120	0xbdb00c2d	-0.08596072
121	0xbddbc38d	-0.10730658
122	0x3d942a30	0.07234609
123	0x3df3b002	0.11898805
124	0xbe1de41b	-0.15419047
125	0xbd8e2858	-0.06941289
126	0x3cc0bd47	0.023527754
127	0xbd362da9	-0.04447714
128	0x3d0290ee	0.031876497
129	0xbdd391b9	-0.10330529
130	0xbd892d53	-0.06698098
131	0x3ba3bd3b	0.0049969233
132	0x3ca6f32a	0.020379622
133	0x3e1b994e	0.151952
134	0xbdf7b3f3	-0.120948695
135	0x3e0a82b4	0.13526422
136	0xbd9cbef9	-0.07653613
137	0x3d796b58	0.060893387
138	0x3bfe0c1a	0.0077529075
139	0x3d2e6f95	0.04258688
140	0xbc22d6be	-0.009938894
141	0xbdb9529a	-0.09048958
142	0x3dc2497a	0.09486671
143	0x3cd342c3	0.02578867
144	0x3de7705c	0.11300728
145	0x3c376e89	0.011195787
146	0x3d8fc842	0.07020618
147	0xbd1bf967	-0.038079645
148	0x3c07ec24	0.008296046
149	0x3d0115fc	0.031515107
150	0x3e1e0eba	0.15435305
151	0xbe189b02	-0.14902881
152	0x3da76142	0.08172847
153	0xbd932d52	-0.071863785
154	0xbd7a51ad	-0.06111305
155	0x3d9e8575	0.07740299
156	0x3d7a242e	0.06106966
157	0x3cc7e22e	0.024399843
158	0xbd199ce4	-0.03750314
159	0x3df4f876	0.11961453
160	0x3da2d989	0.07951648
161	0x3d7eb8aa	0.062187828
162	0x3caaa3bf	0.020830033
163	0xbde3d144	-0.111238986
164	0x3e0da7aa	0.1383349
165	0xbd49ab8f	-0.049235877
166	0xbdd19f35	-0.102354445
167	0xbcec13ee	-0.028818097
168	0x3c69ad56	0.014262518
169	0x3dbcba4d	0.092152216
170	0xbc140947	-0.009035415
171	0x3caa76d2	0.020808611
172	0x3d5e958d	0.05434184
173	0x3cf22956	0.029560726
174	0xbcc6b717	-0.024257226
175	0xbcb7be41	-0.022429587
176	0x3d4b5b9e	0.04964792
177	0xbce3fa3d	-0.027829284
178	0xbbb74fde	-0.0055942377
179	0xbc9dd1f6	-0.019265156
180	0x3d68b664	0.056814566
181	0x3de6bf2e	0.112669334
182	0x3e4eeec7	0.20208274
183	0xbdbe5907	-0.09294324
184	0xbda566da	-0.08076258
185	0x3caeea3a	0.021351922
186	0xbd908a22	-0.07057597
187	0x3d50deac	0.050993606
188	0xbd481dda	-0.048856594
189	0xbdfde0a7	-0.12396365
190	0xbd398668	-0.045294195
191	0xbbfc8fae	-0.0077075576
192	0xbd8dde11	-0.069271214
193	0xbd1e09ff	-0.03858375
194	0xbcff4109	-0.03115894
195	0x3e0834e5	0.13301428
196	0xbd80ba80	-0.06285572
197	0xbda63c4c	-0.081169695
198	0x3da49096	0.0803539
199	0xbd1e7154	-0.038682297
200	0xbdc54011	-0.0963136
201	0xbd024213	-0.031801295
202	0xbde37615	-0.11106507
203	0xbd837c99	-0.064202495
204	0x3b0b8ef4	0.0021294923
205	0xbdada8fe	-0.08479498
206	0xbe55c45d	-0.20875688
207	0x3d90da7c	0.070729226
208	0xbd6a478d	-0.057197142
209	0xbc9412ae	-0.018075313
210	0x3d43f921	0.04784501
211	0x3da23d47	0.07921844
212	0xbe083506	-0.13301477
213	0xbe20def9	-0.15710057
214	0xbe56a219	-0.20960273
215	0x3e2126ae	0.15737411
216	0xbd05584a	-0.032554902
217	0xbd349191	-0.044084135
218	0x3dbfc240	0.09363222
219	0xbdcceb86	-0.1000586
220	0xbdadc436	-0.0848469
221	0x3d892e26	0.06698255
222	0x3d7538c5	0.059868593
223	0xbe24553a	-0.16048136
224	0xbce15f99	-0.027511405
225	0x3d1cc87b	0.03827713
226	0xbdeaa5ef	-0.114574306
227	0xbb165c33	-0.0022943139
228	0x3dbcbe9c	0.09216043
229	0xbdbbeea8	-0.091763794
230	0x3d260c78	0.040539235
231	0xbcc74d7c	-0.02432894
232	0xbdcc8895	-0.099869885
233	0xbdc8155a	-0.097696975
234	0x3c04d937	0.008108429
235	0xbcf27ae3	-0.029599613
236	0xbd5edf9d	-0.054412473
237	0xbe0549cb	-0.13016431
238	0xbd3e87fa	-0.046516396
239	0x3b6cb733	0.0036119937
240	0x3e685965	0.22690351
241	0xbb392387	-0.0028249936
242	0xbe3e25ec	-0.18569154
243	0x3e21e3b4	0.15809518
244	0xbb2b80c7	-0.0026169287
245	0x3ddca7c2	0.10774185
246	0x3e29b129	0.16571487
247	0xbdb0ff53	-0.08642449
248	0xbdc3d50f	-0.09562122
249	0x3d3ec3ca	0.046573438
250	0x3d2175ed	0.039419103
251	0xbe564062	-0.20922998
252	0xbd360573	-0.04443879
253	0x3d9a2e73	0.07528391
254	0xbe868011	-0.26269582
255	0x3d44f631	0.04808635

conv4.0.bias f4 [64]
0	0x3cbadd99	0.022810744
1	0x3e06f049	0.13177599
2	0xbe0e698f	-0.13907455
3	0xbdc33389	-0.09531314
4	0x3cf165fa	0.029467572
5	0xbe7d89db	-0.24759619
6	0x3dbf7f4f	0.09350454
7	0xbda45437	-0.08023875
8	0xbc0b01df	-0.008484333
9	0xbd3f093d	-0.04663967
10	0x3d53c58d	0.05170207
11	0xbe875658	-0.26433063
12	0xbc47e760	-0.01220116
13	0xbd64bd57	-0.05584463
14	0xbca86eac	-0.020560585
15	0xbccde0f0	-0.025131673
16	0xbd579bd3	-0.05263884
17	0xbcf57d41	-0.029966952
18	0xbe1afa3d	-0.15134521
19	0xbd862c19	-0.0655138
20	0x3c36fcc3	0.0111686615
21	0x3d9f3f00	0.07775688
22	0xbdd88804	-0.10572818
23	0xbd455478	-0.04817626
24	0x3d51e51f	0.051243898
25	0xbd763441	-0.060108427
26	0x3d68e44d	0.05685835
27	0xbcdbc314	-0.026826419
28	0xbda26b6d	-0.07930646
29	0x3d098f17	0.033583727
30	0xbdf4391c	-0.11924955
31	0x3d6ef367	0.058337595
32	0xbd27f254	-0.041002586
33	0xbe0de6c0	-0.13857555
34	0xbdc4a160	-0.09601092
35	0x3cab50d8	0.020912573
36	0xbe71b924	-0.23605782
37	0x3d52376b	0.051322382
38	0xbde67156	-0.11252086
39	0x3d47c502	0.048771866
40	0x3d003998	0.031304926
41	0x3d4c918d	0.049943496
42	0xbc665456	-0.014058193
43	0xbe060ebb	-0.13091557
44	0x3d138d94	0.03602369
45	0xbd3f07af	-0.046638187
46	0x3da32d7b	0.07967659
47	0x3cf076e6	0.02935357
48	0xbd165762	-0.03670443
49	0x3b4a5042	0.0030870591
50	0x3d053413	0.032520365
51	0xbd2e0381	-0.04248381
52	0xbdebb48b	-0.11509045
53	0xbb764584	-0.0037578056
54	0xbd0f3534	-0.034962848
55	0xbd13e0ef	-0.036103185
56	0xbda2c6b3	-0.07948055
57	0xbddade32	-0.10686912
58	0xbe40a4fe	-0.1881294
59	0xbdc868db	-0.097856246
60	0xbe2ca5dc	-0.16860145
61	0xbce30339	-0.027711498
62	0xbdb89380	-0.090125084
63	0xbce865d7	-0.028368874

fc.weight f4 [1, 64]
0	0xbf1fc5fe	-0.6241149
1	0xbf1824da	-0.5943123
2	0x3ebacc82	0.36484152
3	0x3eafcf2f	0.34337756
4	0xbec7206c	-0.38891923
5	0x3f2e4274	0.6807015
6	0xbe9b201c	-0.30297935
7	0x3ef856cc	0.4850372
8	0x3ee8bc14	0.45455992
9	0xbf764373	-0.9619667
10	0xbe88290d	-0.2659382
11	0x3f19b6a4	0.6004431
12	0xbe7595eb	-0.2398297
13	0x3f300a29	0.68765503
14	0x3e87b894	0.2650801
15	0x3e9807b6	0.29693383
16	0x3edbefea	0.42956477
17	0xbeec9f82	-0.46215445
18	0x3ea9daca	0.33174735
19	0x3eb972ce	0.36220402
20	0x3e911479	0.28335932
21	0x3ef7712d	0.48328534
22	0x3ecc2498	0.3987167
23	0xbf5cffc8	-0.8632779
24	0xbf498793	-0.78722495
25	0x3f56df5c	0.8393457
26	0x3ed5de8f	0.4177136
27	0xbed80038	-0.42187667
28	0xbf9268bd	-1.1438214
29	0xbe99cd4f	-0.3003945
30	0xbf44d058	-0.7688041
31	0xbe91fd56	-0.28513592
32	0x3f26844b	0.65045613
33	0x3ed815ee	0.4220423
34	0xbf29e9b6	-0.6637224
35	0x3ea523c1	0.3225384
36	0x3f129af3	0.57267684
37	0xbeff73f3	-0.4989315
38	0x3ea2a3ea	0.31765682
39	0xbe92f87b	-0.287052
40	0xbf07eca6	-0.5309547
41	0x3ee1a4f3	0.4407116
42	0x3f2f7989	0.6854482
43	0x3f162b27	0.58659595
44	0x3e9aa506	0.30204028
45	0xbedac6fc	-0.42729938
46	0xbe8a2e39	-0.2698839
47	0x3e9caf2e	0.30602401
48	0xbf1fa651	-0.62363154
49	0x3ec26e22	0.3797465
50	0xbf140043	-0.578129
51	0x3ecc3eb1	0.3989158
52	0x3eaae83f	0.33380315
53	0x3eb39228	0.35072446
54	0xbf3cbc23	-0.73724574
55	0xbf3624b0	-0.7114973
56	0xbf1692c2	-0.58817685
57	0x3ee2ebb2	0.44320446
58	0x3ef63422	0.4808665
59	0x3ea0a40b	0.31375155
60	0x3eb67161	0.35633376
61	0xbf40429a	-0.75101626
62	0x3eb805d9	0.3594196
63	0x3e9a5df0	0.30149794
