api/modelstate.pth (torch_old, 100161 bytes, 9 tensors)

conv1.0.weight f4 [8, 3, 3, 3]
-0.090636775 -0.07095349 -0.008842659 -0.104072616 0.1279909 0.011061589 -0.14460099 -0.045224242
-0.073649496 -0.12259064 0.12875476 -0.14825037 -0.033721767 -0.091932856 0.15432452 0.21416728
0.19157483 0.19704813 0.014853121 -0.04139318 -0.07436177 0.21816064 0.17846458 0.10025671
0.106171206 -0.027249483 -0.05622957 -0.0006341622 0.03178178 0.02652678 -0.0118523445 -0.12024197
0.091318466 -0.1393358 -0.009970017 -0.11904965 -0.14620695 0.08101322 0.13522431 0.1729801
-0.017204283 0.182002 0.028133174 0.07961361 -0.096829414 0.16040818 0.03944423 0.091813035
0.20743747 0.02754691 -0.02254156 -0.020700894 0.005451652 0.14189804 -0.026772792 0.10920961
-0.073452644 -0.025030876 -0.047851205 0.15253283 -0.13838476 0.2015972 0.09901425 -0.09911971
0.14957348 -0.02075092 -0.07203367 -0.10350501 0.15829621 0.09570514 0.18379489 0.16804397
-0.02803027 -0.012151285 0.0039853184 -0.016519535 0.1638897 0.110315055 -0.059446413 0.0019917388
0.14488207 0.18121785 -0.0080531305 -0.11238036 -0.048379626 -0.0817838 0.014577495 0.13785985
0.083999164 -0.036812246 -0.077384725 0.00727386 0.19757769 0.15439495 0.04927414 -0.105142206
0.04534253 -0.09728959 -0.13461195 0.11323444 0.18595496 0.13713019 0.15819155 -0.0915229
-0.08197454 0.116015226 -0.12176067 0.058883306 0.18977982 0.123598784 -0.15341249 0.114323206
-0.06024628 0.08215104 0.2084358 -0.1131536 0.0037656457 0.10514326 0.051275905 -0.14247575
0.1278391 0.12672335 0.082994364 0.116821125 -0.021302855 -0.087870926 0.21556175 -0.07435725
-0.00067643455 -0.103276625 0.13460258 -0.023813173 -0.1430975 0.2195998 -0.02236028 0.1464331
0.06646767 -0.1390513 -0.14013696 0.15751445 0.030556802 0.12611234 0.03602631 0.07127256
-0.07262608 0.12836789 0.06637342 0.1185218 -0.13307956 0.13094972 -0.07198299 0.10562104
0.09164347 -0.09707814 0.16849568 0.07485864 -0.034848005 0.08736476 -0.13609578 -0.048902098
0.09459729 -0.16791883 0.17608345 -0.07810767 -0.09060635 0.1627762 0.06280763 0.114823975
-0.115695655 -0.104920566 0.1193604 0.087115556 -0.12670235 -0.05237751 0.21285366 0.01656077
0.18680564 0.079407915 0.044356506 -0.033705138 -0.05021346 0.010786277 -0.0730448 -0.13038844
0.12879814 0.04914249 0.13413851 -0.10159983 0.037193343 -0.049666677 0.13426468 -0.046891823
-0.18249893 0.0035460123 0.19625047 0.031196274 0.04247113 -0.06957161 0.20420957 -0.07234705
0.1435618 0.11269905 0.060784172 -0.13320127 -0.011772768 -0.15866204 0.13478903 0.10569385
0.07395777 -0.15354365 -0.046081934 0.08514526 -0.19152929 0.088501856 -0.11942319 0.13115565
00000000: c69f b9bd 1050 91bd cde0 10bc 0624 d5bd
00000010: 0c10 033e ab3b 353c 4812 14be 0e3d 39bd
00000020: 8cd5 96bd cd10 fbbd 4ad8 033e f2ce 17be
00000030: d61f 0abd 4b47 bcbd 3f07 1e3e ab4e 5b3e
00000040: 312c 443e fcc6 493e 815a 733c e58b 29bd
00000050: fc4a 98bd 8165 5f3e 6bbf 363e 6453 cd3d
00000060: 4a70 d93d 4f3a dfbc fa50 66bd e83d 26ba
00000070: 9d2d 023d b14e d93c 5630 42bc 6c41 f6bd
00000080: 2d05 bb3d 0bae 0ebe 4859 23bc 4ed0 f3bd
00000090: 46b7 15be 42ea a53d 3e78 0a3e b221 313e
000000a0: ffef 8cbc bb5e 3a3e 8b77 e63c 760c a33d
000000b0: 804e c6bd 0b42 243e 4690 213d 7908 bc3d
000000c0: 7d6a 543e 0faa e13c 14a9 b8bc ec94 a9bc
000000d0: c6a3 b23b b84d 113e 9d52 dbbc 4aa9 df3d
000000e0: 576e 96bd 8d0d cdbc a0ff 43bd 9131 1c3e
000000f0: bcb4 0dbe 7f6f 4e3e fcc7 ca3d 46ff cabd
00000100: ca29 193e d5fd a9bc 6486 93bd 6ffa d3bd
00000110: 6718 223e 0e01 c43d ba34 3c3e b813 2c3e
00000120: bd9f e5bc 2f16 47bc 4697 823b fa53 87bc
00000130: b4d2 273e dcec e13d 157e 73bd d587 023b
00000140: f75b 143e 2c91 393e 47f1 03bc ad27 e6bd
00000150: b729 46bd 447e a7bd 72d6 6e3c 222b 0d3e
00000160: c107 ac3d 70c8 16bd e27b 9ebd 8f59 ee3b
00000170: ce51 4a3e b619 1e3e aed3 493d cc54 d7bd
00000180: 17b9 393d c43f c7bd b7d7 09be 75e7 e73d
00000190: fa6a 3e3e db6b 0c3e f7fc 213e 5c70 bbbd
000001a0: 45e2 a7bd 6499 ed3d a85d f9bd 9f2f 713d
000001b0: a455 423e 5c21 fd3d 2a18 1dbe 4922 ea3d
000001c0: cec4 76bd ce3e a83d 3270 553e 13bd e7bd
000001d0: 0dc9 763b 5955 d73d af06 523d 2ae5 11be
000001e0: 41e8 023e c4c3 013e f3f8 a93d ea3f ef3d
000001f0: 5383 aebc acf5 b3bd 38bc 5c3e 9d48 98bd
00000200: c152 31ba b282 d3bd 42d5 093e d813 c3bc
00000210: 2788 12be c5de 603e e82c b7bc 8ff2 153e
00000220: 3420 883d 7763 0ebe 1080 0fbe 784b 213e
00000230: 4252 fa3c 9823 013e 5390 133d 59f7 913d
00000240: fbbc 94bd df72 033e caee 873d 8fbb f23d
00000250: 0246 08be af17 063e d16b 93bd d84f d83d
00000260: 92af bb3d e7d0 c6bd 228a 2c3e 7d4f 993d
00000270: c8bc 0ebd 4cec b23d b15c 0bbe 914d 48bd
00000280: 39bc c13d eaf2 2bbe 384f 343e eaf6 9fbd
00000290: d28f b9bd ceae 263e 49a1 803d d528 eb3d
000002a0: d8f1 ecbd 98e0 d6bd 3a73 f43d a469 b23d
000002b0: 43be 01be cd89 56bd 4ff6 593e 74aa 873c
000002c0: fa49 3f3e 9ea0 a23d 2baf 353d 660e 0abd
000002d0: a1ac 4dbd edb8 303c 8398 95bd 8c84 05be
000002e0: a9e3 033e a349 493d 9b5b 093e 9213 d0bd
000002f0: 0c58 183d 496f 4bbd ae7c 093e a411 40bd
00000300: 00e1 3abe 3764 683b e2f5 483e 548f ff3c
00000310: 35f6 2d3d 8f7b 8ebd 501c 513e b12a 94bd
00000320: dd01 133e c2ce e63d d3f8 783d ea65 08be
00000330: 91e2 40bc 4d78 22be 2306 0a3e 0476 d83d
00000340: 2c77 973d 8c3a 1dbe 69c0 3cbd a360 ae3d
00000350: 4120 44be 7640 b53d 2594 f4bd ab4d 063e

conv1.0.bias f4 [8]
-0.06818426 -0.19797406 0.14830731 -0.16571258 0.11161785 -0.16618584 0.05276984 0.021177433
00000000: 30a4 8bbd b6b9 4abe dfdd 173e 8fb0 29be
00000010: e697 e43d 9f2c 2abe 3025 583d 4c7c ad3c

conv2.0.weight f4 [16, 8, 3, 3]
0.06401863 0.056596704 0.009897393 -0.09660358 0.1021718 0.039180256 -0.0071179634 0.050135978
0.10530049 -0.063445866 0.06416454 0.059305064 0.0947641 -0.08300537 -0.09019725 0.011714773
-0.086523786 0.011199879 -0.09076636 -0.093386404 -0.041153565 -0.03593273 -0.08853593 0.005315352
-0.14308469 -0.11248218 -0.037083868 0.08335185 0.015603998 0.02568561 -0.017780952 -0.019988239
-0.14428142 -0.043683942 -0.016218096 -0.021549946 -0.077862725 -0.055003487 0.010944539 -0.025785238
0.032056123 -0.041463017 0.031779658 -0.08233573 -0.016318439 -0.042862136 0.007226431 0.022263022
0.040552918 0.043778855 0.08231065 -0.065921046 -0.03867425 -0.10921296 0.040886164 -0.016737174
-0.051981382 -0.025375765 -0.07445511 -0.05319089 -0.06904075 -0.034410063 0.059576776 -0.06124906
0.105691075 -0.111258075 0.03786057 -0.1335968 0.05798517 -0.073159 -0.05154891 -0.008632938
0.010794877 0.0707045 0.030070707 -0.012575223 -0.044824786 -0.000893818 -0.12747246 -0.014217004
0.049532406 -0.10062413 0.0696465 -0.04609854 -0.026549207 -0.076060936 0.096971765 0.05214638
-0.105673976 0.019796096 0.084921554 -0.12420019 -0.12278692 0.04791457 -0.08720508 0.034408685
-0.12463156 0.08044162 -0.045874264 -0.06286531 -0.10928337 -0.04601805 -0.036735356 -0.10603957
0.059906993 -0.07545036 -0.079656295 0.0036914148 -0.077865005 -0.0039230203 0.007323381 0.025058668
0.072754376 -0.057228625 -0.10015737 -0.11914242 -0.08041608 -0.08672728 0.019240297 -0.010169434
-0.060883407 0.103305936 0.013822976 0.060520906 0.061991375 0.041416515 -0.02093882 0.047314033
0.085281834 -0.027864287 0.022061992 0.068114705 -0.11722902 0.019093571 0.08463418 0.013148647
-0.006344425 -0.025316244 -0.017191935 0.008130983 -0.15340695 0.10269096 -0.13928303 -0.124572046
0.04039601 0.03641024 0.02876913 -0.024660362 0.04158335 0.06502995 -0.06485515 -0.032354143
0.08404456 -0.07044482 -0.0025060338 0.04216414 -0.014096424 0.04128624 0.027622104 0.05677419
-0.005219156 -0.09461603 0.026228035 0.0231787 0.100838095 -0.10886267 -0.10781771 -0.09382042
-0.08310003 -0.045837346 0.084162295 -0.075706944 -0.09757766 -0.12505293 0.024279768 -0.006619946
-0.0759121 0.05471087 -0.12344587 -0.11175253 -0.07271597 -0.05911753 -0.11668648 0.031796712
-0.015528483 -0.10020086 -0.025771895 0.020027658 0.052340094 -0.09908878 -0.10464785 -0.047570158
-0.019289179 -0.016478915 0.029429499 0.0879812 0.044047493 -0.05034791 0.10703036 -0.08791361
0.03706078 0.09339452 -0.034831796 -0.026586512 -0.08846977 -0.11786559 -0.044530883 0.082886115
-0.020101229 0.049490474 0.0044498765 -0.006669958 -0.10235277 -0.11582966 -0.12881161 0.0031021782
0.0746363 0.0028467383 -0.021826362 -0.012940899 -0.07623545 0.0006969364 0.08769163 0.06955105
-0.0378505 -0.01466966 -0.0037816241 -0.041106682 -0.11932161 0.081394464 -0.10442813 0.10653282
-0.08651292 0.06832953 -0.105169274 -0.06398203 -0.081669085 0.011244927 0.06304172 -0.069331214
-0.1202032 0.011981971 -0.0041324734 0.06480012 -0.0544853 0.07125342 -0.12905754 -0.12551256
-0.099336475 0.02665696 0.014516516 0.03090561 -0.09213995 -0.019107247 -0.042070877 -0.12361418
00000000: 331c 833d f2d1 673d ad28 223c 19d8 c5bd
00000010: 733f d13d 7a7b 203d ce3d e9bb 625b 4d3d
00000020: c9a7 d73d e8ef 81bd b368 833d dee9 723d
00000030: ae13 c23d b8fe a9bd 56b9 b8bd 52ef 3f3c
00000040: 6233 b1bd b37f 373c b7e3 b9bd 5f41 bfbd
00000050: a490 28bd 332e 13bd 5352 b5bd 682c ae3b
00000060: cb84 12be 0f5d e6bd 41e5 17bd 60b4 aa3d
00000070: e9a7 7f3c a16a d23c 5ca9 91bc 60be a3bc
00000080: 82be 13be efed 32bd d0db 84bc 8389 b0bc
00000090: 7e76 9fbd 564b 61bd b950 333c 903b d3bc
000000a0: 484d 033d 20d5 29bd 632b 023d a39f a8bd
000000b0: 3fae 85bc 3590 2fbd b2cb ec3b f160 b63c
000000c0: d11a 263d 7551 333d 7c92 a83d 9d01 87bd
000000d0: e468 1ebd 0bab dfbd 4078 273d 661c 89bc
000000e0: 6eea 54bd d6e0 cfbc ec7b 98bd b1de 59bd
000000f0: 3d65 8dbd 91f1 0cbd c706 743d 4be0 7abd
00000100: 9074 d83d 46db e3bd af13 1b3d 99cd 08be
00000110: dc81 6d3d 63d4 95bd f324 53bd 2b71 0dbc
00000120: ffdc 303c 85cd 903d d856 f63c 4f08 4ebc
00000130: 329a 37bd 1c4f 6aba 2488 02be 70ee 68bc
00000140: 7ee2 4a3d 0614 cebd d3a2 8e3d d3d1 3cbd
00000150: b97d d9bc d6c5 9bbd 2299 c63d 7197 553d
00000160: 996b d8bd 6c2b a23c 5aeb ad3d ab5c febd
00000170: b577 fbbd 1142 443d 9498 b2bd 1ff0 0c3d
00000180: d53e ffbd 93be a43d a7e6 3bbd 87bf 80bd
00000190: f6cf dfbd 6c7d 3cbd d077 16bd 462b d9bd
000001a0: 0961 753d b885 9abd d722 a3bd aaeb 713b
000001b0: b077 9fbd ae8c 80bb f9f8 ef3b d647 cd3c
000001c0: 3f00 953d 9068 6abd 4f1f cdbd f100 f4bd
000001d0: 30b1 a4bd 129e b1bd d49d 9d3c b39d 26bc
000001e0: e160 79bd 1092 d33d c379 623c c5e4 773d
000001f0: abea 7d3d 5da4 293d e387 abbc 5ccc 413d
00000200: 3ea8 ae3d a543 e4bc 5abb b43c b97f 8b3d
00000210: c515 f0bd 1f6a 9c3c af54 ad3d 6c6d 573c
00000220: e5e4 cfbb 0364 cfbc 1ad6 8cbc d137 053c
00000230: b616 1dbe a34f d23d 36a0 0ebe a11f ffbd
00000240: 4976 253d e722 153d 3dad eb3c 8704 cabc
00000250: 4e53 2a3d 6c2e 853d c7d2 84bd c785 04bd
00000260: 8e1f ac3d 6045 90bd 453c 24bb 4eb4 2c3d
00000270: b0f4 66bc c31b 293d c047 e23c 0e8c 683d
00000280: 7405 abbb 0dc6 c1bd 2ddc d63c 42e1 bd3c
00000290: 3484 ce3d 64f3 debd 88cf dcbd ec24 c0bd
000002a0: 5930 aabd f1bf 3bbd 485d ac3d 3e0c 9bbd
000002b0: ccd6 c7bd e00d 00be 5de6 c63c 22ec d8bb
000002c0: ce77 9bbd 8118 603d 30d1 fcbd 83de e4bd
000002d0: 1cec 94bd 3925 72bd 52f9 eebd 453d 023d
000002e0: 2e6b 7ebc 1c36 cdbd 951f d3bc 0b11 a43c
000002f0: 9162 563d 0fef cabd 9d51 d6bd edd8 42bd
00000300: 5704 9ebc cafe 86bc 2216 f13c 7d2f b43d
00000310: 256b 343d 9c39 4ebd bc32 db3d 0d0c b4bd
00000320: 0bcd 173d a045 bf3d c9ab 0ebd f5cb d9bc
00000330: a42f b5bd 8463 f1bd 0466 36bd 32c0 a93d
00000340: 55ab a4bc 86b6 4a3d 45d0 913b aa8f dabb
00000350: 549e d1bd 1a38 edbd 31e7 03be ea4d 4b3b
00000360: ebda 983d 5890 3a3b 33cd b2bc 1006 54bc
00000370: 5521 9cbd 9cb2 363a ab97 b33d c870 8e3d
00000380: 2009 1bbd 0359 70bc 20d5 77bb 7b5f 28bd
00000390: e35e f4bd 24b2 a63d 6ade d5bd e12d da3d
000003a0: b02d b1bd 5af0 8b3d fd62 d7bd 0309 83bd
000003b0: 1f42 a7bd a43c 383c 041c 813d 86fd 8dbd
000003c0: 182d f6bd 0750 443c b369 87bb edb5 843d
000003d0: fa2b 5fbd 50ed 913d a927 04be 5d86 00be
000003e0: ec70 cbbd b25f da3c aed6 6d3c c32d fd3c
000003f0: dfb3 bcbd cd86 9cbc 8352 2cbd 6e29 fdbd

conv2.0.bias f4 [16]
-0.012226003 -0.008015799 0.020130496 0.068734 0.028780662 0.035887536 -0.06719505 -0.045977566
-0.099869505 0.037834022 -0.0220418 -0.02420038 -0.104510106 -0.0150008 -0.11037932 -0.04591749
00000000: 934f 48bc b354 03bc b6e8 a43c 69c4 8c3d
00000010: 6cc5 eb3c cffe 123d 8f9d 89bd f952 3cbd
00000020: 6288 ccbd d9f7 1a3d 0191 b4bc e03f c6bc
00000030: 6509 d6bd eac5 75bc 8e0e e2bd fa13 3cbd

conv3.0.weight f4 [32, 16, 3, 3]
0.012127834 -0.0909963 -0.0032584686 -0.018828176 -0.095095575 -0.072842665 -0.13307746 -0.0697712
0.012786291 0.0544852 -0.017023517 -0.040522087 0.039607245 -0.08345764 0.027466852 -0.04729888
0.05038002 -0.06487244 -0.060210858 -0.03517521 0.062512115 -0.01656158 -0.11034247 -0.055397905
0.034080453 0.041171785 0.06406692 -0.03452492 0.02096365 -0.057200953 -0.09149101 -0.009267829
-0.12153101 -0.040590897 -0.07450411 0.016897816 0.05298413 0.0024236788 -0.029741328 0.026538828
-0.07861365 0.015274253 0.061507363 0.07022771 -0.093390875 0.04455527 -0.07778057 -0.08767259
-0.0762574 -0.08978937 -0.029791117 -0.014248429 -0.04500142 -0.054296106 0.049008016 0.056628127
0.027972003 -0.0022311418 -0.09386004 -0.06972653 -0.094392404 -0.027357837 -0.029213082 0.06882694
-0.05831073 0.06701117 -0.06717308 -0.07918687 -0.050972708 -0.10124153 0.03528636 -0.07458782
0.09301028 0.009085383 0.0029465584 -0.0563184 0.0743147 0.00868548 -0.066053756 -0.0067618713
0.019728016 -0.020723684 -0.041649576 -0.017217075 -0.03926484 0.01944215 0.042684175 -0.11048023
-0.04669485 -0.03949521 -0.0598987 -0.05130896 0.06607979 -0.02789432 -0.07316881 -0.012485498
-0.0052676015 -0.013338627 0.043439128 0.065259665 -0.044094395 -0.070851095 -0.018817881 0.018087195
0.083758615 0.02152929 0.071826115 -0.051932495 -0.087032355 -0.031893965 -0.13017668 -0.08200225
-0.10087092 -0.11778122 -0.06545147 -0.046465043 0.044136792 -0.061808992 0.046351675 -0.044865973
-0.038012877 -0.073134676 0.053456448 -0.027021514 0.012215123 0.031828016 -0.07156351 0.061300237
0.01539241 -0.07861143 0.051217657 -0.020357188 -0.01293828 0.029165149 -0.061445773 -0.08088517
0.013957714 0.053863782 0.00873324 0.034300156 0.03360932 -0.0017663903 0.041535005 -0.07412242
-0.04069344 0.056291383 -0.045502525 0.024874203 0.0154357385 -0.041479766 -0.055584103 -0.00066213356
0.0746868 0.06895218 -0.029534236 -0.031362895 -0.02717187 -0.06631358 0.05447375 0.05334384
0.053905252 0.028819123 0.060209226 -0.051638898 0.05311132 -0.08966498 0.051173273 -0.028871588
-0.019171463 -0.015212269 -0.031033663 0.047736727 -0.021347743 -0.06859851 -0.053406984 -0.056243926
-0.019397214 -0.0726621 -0.08280322 0.052698947 -0.09062463 -0.06321699 0.009857814 0.014768096
-0.016130362 -0.08722421 -0.08474445 -0.015019606 -0.08497921 -0.024829447 0.024364356 -0.0036112529
-0.04608571 0.01750893 -0.08972773 0.04342634 -0.09496916 0.021970492 -0.03668286 -0.06390927
-0.012419622 -0.037511222 0.010818564 -0.07958973 0.047569353 -0.0207486 0.040385917 0.06345229
0.026201328 0.040517002 -0.07200694 0.040191136 -0.03262099 -0.019790214 -0.008313026 -0.058554452
-0.06497653 -0.05212464 0.06854478 0.0059544817 -0.04943491 0.06405278 -0.05072602 0.022140019
0.025386848 -0.006971551 -0.050607625 0.07110364 0.016844781 -0.040621936 0.009335321 -0.06409628
0.008346348 -0.043997735 0.038725704 -0.052220162 0.044224445 -0.05691546 0.048082564 0.041740198
-0.0056593167 -0.05383186 -0.035593405 -0.059393466 0.04240368 0.011301745 0.03140411 -0.057538908
0.009837889 -0.08046941 -0.006445068 0.020167144 0.048918013 -0.07655067 0.027886461 0.00092210807
00000000: d3b3 463c 455c babd 088c 55bb 8c3d 9abc
00000010: 78c1 c2bd 892e 95bd 7545 08be 34e4 8ebd
00000020: 977d 513c e02b 5f3d e774 8bbc 7dfa 25bd
00000030: 353b 223d d7eb aabd 2a02 e13c 78bc 41bd
00000040: 485b 4e3d d8db 84bd a99f 76bd e213 10bd
00000050: 5a06 803d 27ac 87bc 3cfb e1bd eae8 62bd
00000060: f297 0b3d bfa3 283d 8435 833d 016a 0dbd
00000070: f6bb ab3c 8c4b 6abd a35f bbbd 18d8 17bc
00000080: 40e5 f8bd a442 26bd 9c95 98bd 4a6d 8a3c
00000090: e305 593d 95d6 1e3b 16a4 f3bc f567 d93c
000000a0: 3100 a1bd dc40 7a3c 25ef 7b3d 8cd3 8f3d
000000b0: b743 bfbd 967f 363d 6b4b 9fbd b08d b3bd
000000c0: d72c 9cbd 7de3 b7bd 800c f4bc 3e72 69bc
000000d0: 6953 38bd 9865 5ebd a1bc 483d e5f2 673d
000000e0: 8b25 e53c 5938 12bb b139 c0bd c8cc 8ebd
000000f0: ce50 c1bd 8b1d e0bc 4650 efbc 24f5 8c3d
00000100: 3bd7 6ebd 273d 893d 0a92 89bd ba2c a2bd
00000110: c2c8 50bd b857 cfbd 6e88 103d 80c1 98bd
00000120: 2c7c be3d dcda 143c 0c1b 413b 1fae 66bd
00000130: 4e32 983d 8b4d 0e3c 3147 87bd b092 ddbb
00000140: a69c a13c b7c4 a9bc bf98 2abd d30a 8dbc
00000150: 2bd4 20bd 2545 9f3c 9ad5 2e3d 7543 e2bd
00000160: 1943 3fbd bbc5 21bd 5758 75bd 5829 52bd
00000170: d754 873d a182 e4bc 87d9 95bd f98f 4cbc
00000180: d89b acbb 428a 5abc 3aed 313d dca6 853d
00000190: 539c 34bd 611a 91bd f527 9abc 992b 943c
000001a0: a389 ab3d 325e b03c 9219 933d 2bb7 54bd
000001b0: 053e b2bd 3fa3 02bd 094d 05be ccf0 a7bd
000001c0: 6a95 cebd 4837 f1bd 6c0b 86bd 2152 3ebd
000001d0: c8c8 343d 6d2b 7dbd 41db 3d3d 62c5 37bd
000001e0: 64b3 1bbd a2c7 95bd 26f5 5a3d 395c ddbc
000001f0: f021 483c 185e 023d e48f 92bd f515 7b3d
00000200: 7230 7c3c 08ff a0bd 9bc9 513d 1ec4 a6bc
00000210: 14fb 53bc c0eb ee3c 90ae 7bbd 20a7 a5bd
00000220: e5ae 643c 45a0 5c3d dd15 0f3c 527e 0c3d
00000230: eda9 093d 3986 e7ba 9c20 2a3d 7fcd 97bd
00000240: 2aae 26bd cb91 663d db60 3abd fcc4 cb3c
00000250: 2ee6 7c3c b0e6 29bd 28ac 63bd 0893 2dba
00000260: 65f5 983d cd36 8d3d c8f1 f1bc 6176 00bd
00000270: 8b97 debc 6acf 87bd de1f 5f3d 127f 5a3d
00000280: c1cb 5c3d 1516 ec3c f39d 763d 4f83 53bd
00000290: 418b 593d 46a2 b7bd 119b 513d 1c84 ecbc
000002a0: 790d 9dbc e13c 79bc 4f3a febc 9687 433d
000002b0: 76e1 aebc 607d 8cbd 48c1 5abd 0860 66bd
000002c0: e8e6 9ebc decf 94bd bc94 a9bd dada 573d
000002d0: 6899 b9bd e977 81bd ab82 213c e2f5 713c
000002e0: d223 84bc 9ba2 b2bd 808e adbd cb14 76bc
000002f0: 9409 aebd 2067 cbbc c297 c73c c5aa 6cbb
00000300: 5fc4 3cbd e36e 8f3c 2cc3 b7bd d1df 313d
00000310: 317f c2bd 76fb b33c c440 16bd dde2 82bd
00000320: ac7b 4bbc 5ea5 19bd 5940 313c f1ff a2bd
00000330: 15d8 423d f8f8 a9bc b46b 253d 46f3 813d
00000340: 2ba4 d63c 28f5 253d 6078 93bd 769f 243d
00000350: 969d 05bd 161f a2bc 5c33 08bc cbd6 6fbd
00000360: 6a12 85bd a680 55bd 3561 8c3d d01d c33b
00000370: 437c 4abd 1b2e 833d 16c6 4fbd fc5e b53c
00000380: 14f8 cf3c 9c71 e4bb f149 4fbd c99e 913d
00000390: 11fe 893c 3063 26bd 2df3 183c e944 83bd
000003a0: 1fbf 083c f836 34bd d89e 1e3d cfe4 55bd
000003b0: b124 353d 2f20 69bd 39f2 443d c5f7 2a3d
000003c0: ca71 b9bb cc7e 5cbd 64ca 11bd 9046 73bd
000003d0: 7baf 2d3d f42a 393c 99a1 003d ebad 6bbd
000003e0: 192f 213c 25cd a4bd 2631 d3bb 9135 a53c
000003f0: 415e 483d 99c6 9cbd 2672 e43c a0b9 713a

conv3.0.bias f4 [32]
0.03506197 -0.0779914 -0.03306006 -0.017104343 -0.020368863 0.03513595 -0.020424139 0.025360586
-0.078556664 -0.08034079 -0.059119165 -0.05964699 0.008911255 0.059279393 -0.0051639806 -0.07241093
-0.005723464 -0.040069446 0.050016664 -0.012234348 -0.06766272 -0.0990739 -0.007476926 -0.0029505866
0.01584649 -0.024597628 0.01544734 -0.061824698 -0.070602134 0.06382618 0.034343854 -0.01005758
00000000: 249d 0f3d f5b9 9fbd fc69 07bd 681e 8cbc
00000010: 9adc a6bc b7ea 0f3d 8650 a7bc 01c1 cf3c
00000020: 51e2 a0bd b689 a4bd f026 72bd 6750 74bd
00000030: 8300 123c f3ce 723d 9c36 a9bb 2f4c 94bd
00000040: e58b bbbb dc1f 24bd 46de 4c3d 9372 48bc
00000050: c192 8abd 42e7 cabd 0001 f5bb a15e 41bb
00000060: 80d0 813c f780 c9bc d716 7d3c e53b 7dbd
00000070: da97 90bd 4db7 823d 24ac 0c3d 8cc8 24bc

conv4.0.weight f4 [64, 32, 3, 3]
-0.014537259 0.05763484 0.050004654 0.03807041 0.000518176 -0.019913746 -0.036191832 0.014054913
0.026393289 0.043379243 -0.023360815 -0.03413734 -0.004668799 0.024625946 -0.008511578 -0.0076022907
0.044262614 -0.08001811 -0.01859988 0.004791509 -0.026482739 0.03989353 0.038295303 0.004449564
-0.016827056 0.013847987 0.0023249257 -0.04482136 -0.027231432 -0.055574957 -0.078145176 -0.06208815
-0.050478823 -0.039798144 -0.029924516 -0.07915 -0.049422532 0.05455639 -0.053287193 0.045135964
-0.03258556 0.029556613 -0.019502226 0.020413306 -0.039357446 -0.02865045 0.039966688 0.012860571
-0.032570504 -0.014507496 0.021693977 0.021211432 -0.042576462 -0.047602545 -0.018164122 -0.037318
0.044054758 -0.020927904 -0.02229903 -0.0017087613 -0.03426566 -0.08220166 -0.011992228 0.0150382165
0.06310034 -0.03472966 -0.022125667 -0.020763325 0.0072916625 0.019343307 0.006743476 0.045607097
0.04765034 0.043406438 -0.015890015 0.025078038 0.0082701845 0.047435805 0.03652248 0.010253397
0.032646276 -0.02183811 0.047801275 0.00805619 0.008455168 0.04573411 -0.03928142 -0.046361048
-0.012504127 -0.028415391 -0.026637856 -0.055729076 0.0012376755 0.0013878457 -0.012507465 0.037261255
-0.020215187 -0.0393951 0.04526509 0.013899657 -0.07794388 -0.02932499 -0.037531767 -0.0006925829
0.033584625 0.00069736264 -0.06844515 -0.03181977 0.026577817 -0.021573385 0.031290684 -0.049577042
-0.015329755 -0.003240973 0.010882586 -0.0003136875 0.05095588 -0.091562495 -0.04058694 0.0063474798
0.07015766 0.023171743 0.061548233 -0.005971721 -0.032770727 0.025115883 -0.04965661 -0.032644738
-0.03001387 -0.015268256 0.044850335 0.012381005 -0.021060929 -0.06842063 0.03965033 -0.09695823
-0.052298557 -0.021073554 -0.043178055 -0.06380979 0.015379434 0.0027152963 -0.0850515 0.012697695
0.052517693 -0.02872724 -0.0523829 -0.03854902 -0.044669654 -3.1234275e-05 -0.009920009 0.026705721
0.043940596 0.0050446885 -0.062385157 0.025632089 0.033983376 -0.060060915 0.03653102 0.020829221
-0.024948793 -0.005868913 9.584324e-05 -0.055857252 -0.051473584 0.046845637 0.022681853 -0.0006632693
0.021631364 0.040614955 0.0055757426 0.028199758 0.044091392 -0.021514472 -0.053752508 -0.047379177
-0.010343759 -0.006191634 -0.06388032 -0.052645367 -0.031003337 -0.02907495 -0.061227165 0.013767386
-0.05201702 -0.031371206 0.0062786937 -0.011329932 0.028819893 0.051134996 -0.035483524 -0.022041542
0.030736212 0.036752068 -0.07500158 -0.036299318 0.014314155 -0.050377745 0.053421117 0.010547999
-0.014943003 -0.054683566 -0.01887205 -0.012853358 -0.0062965723 -0.021593392 -0.06291412 -0.028555011
-0.05540773 -0.011554487 0.044933893 -0.030217411 -0.05709104 0.03604551 -0.020525947 0.019699894
-0.010637071 0.029873835 0.045902107 -0.040293857 0.04635923 0.018666742 -0.039113432 0.013528206
-0.03582471 0.0076127145 0.027588487 -0.009069787 0.010537763 0.0061143716 -0.06911898 0.005226773
-0.034717243 -0.04244892 0.0072957934 -0.033130955 0.037409525 -0.0476067 0.029864643 0.039789494
0.025945997 0.017071359 0.025241435 -0.03175787 -0.005876976 0.049235716 -0.005876495 0.045994185
0.007117704 0.062074058 0.037486214 -0.0010639282 0.038925644 -0.037845876 -0.05105776 0.005979631
00000000: af2d 6ebc 8312 6c3d aed1 4c3d b8ef 1b3d
00000010: 34d6 073a 2722 a3bc e33d 14bd 9446 663c
00000020: bd36 d83c 6fae 313d 2e5f bfbc 98d3 0bbd
00000030: bafc 98bb 5abc c93c 2574 0bbc a31c f9bb
00000040: b74c 353d 89e0 a3bd c75e 98bc 1702 9d3b
00000050: 54f2 d8bc 6667 233d 89db 1c3d a6cd 913b
00000060: e5d8 89bc abe2 623c c85d 183b 9a96 37bd
00000070: 7414 dfbc 91a2 63bd 940a a0bd 2550 7ebd
00000080: e2c2 4ebd 6103 23bd 4224 f5bc 6519 a2bd
00000090: 486f 4abd 8576 5f3d ac43 5abd 7de0 383d
000000a0: 7078 05bd b620 f23c 22c3 9fbc ce39 a73c
000000b0: 4635 21bd 59b4 eabc 1cb4 233d 25b5 523c
000000c0: a668 05bd d9b0 6dbc 91b7 b13c 99c3 ad3c
000000d0: a864 2ebd e3fa 42bd edcc 94bc c2da 18bd
000000e0: c372 343d ff70 abbc 75ac b6bc 84f8 dfba
000000f0: 265a 0cbd 5859 a8bd 0d7b 44bc da62 763c
00000100: c03a 813d b040 0ebd e340 b5bc d917 aabc
00000110: e6ee ee3b db75 9e3c 60f8 dc3b 82ce 3a3d
00000120: 012d 433d f3ca 313d c72b 82bc 7570 cd3c
00000130: ab7f 073c 0c4c 423d 9998 153d ddfd 273c
00000140: 1ab8 053d d6e5 b2bc 45cb 433d 1cfe 033c
00000150: 8c87 0a3c b153 3b3d 8ee5 20bd 15e5 3dbd
00000160: 1cde 4cbc 65c7 e8bc a237 dabc 2c44 64bd
00000170: 8039 a23a 60e8 b53a 1cec 4cbc 429f 183d
00000180: 529a a5bc c25c 21bd e367 393d 63bb 633c
00000190: 0aa1 9fbd f63a f0bc e9ba 19bd 748e 35ba
000001a0: 0890 093d 37cf 363a f92c 8cbd 7255 02bd
000001b0: b9b9 d93c abba b0bc a92a 003d 4c11 4bbd
000001c0: a729 7bbc 8166 54bb e04c 323c 6c76 a4b9
000001d0: 1db7 503d 1e85 bbbd 7e3e 26bd 85fe cf3b
000001e0: d2ae 8f3d abd2 bd3c 001a 7c3d 6dae c3bb
000001f0: 993a 06bd d3bf cd3c bb64 4bbd 7db6 05bd
00000200: a6df f5bc b527 7abc fcb4 373d b3d9 4a3c
00000210: f887 acbc 1e20 8cbd 6268 223d 0992 c6bd
00000220: 0337 56bd 72a2 acbc 79db 30bd b5ae 82bd
00000230: 06fa 7b3c 1df3 313b 7b2f aebd fe09 503c
00000240: cb1c 573d 6455 ebbc 748f 56bd 94e5 1dbd
00000250: 87f7 36bd 8c01 03b8 8987 22bc f5c5 da3c
00000260: 0efb 333d ea4d a53b 9487 7fbd 63fa d13c
00000270: 2732 0b3d 6f02 76bd 8da1 153d 0ba2 aa3c
00000280: 6961 ccbc 0350 c0bb 73ff c838 93ca 64bd
00000290: f7d5 52bd 36e1 3f3d 4bcf b93c 40df 2dba
000002a0: 4234 b13c de5b 263d b8b4 b63b 2e03 e73c
000002b0: 2d99 343d 1e3f b0bc 972b 5cbd ab10 42bd
000002c0: df78 29bc 31e3 cabb afd3 82bd aba2 57bd
000002d0: b6fa fdbc 972e eebc 56c9 7abd 9a90 613c
000002e0: cc0f 55bd 187f 00bd 80bd cd3b 2ea1 39bc
000002f0: b217 ec3c ee72 513d 2c57 11bd 7790 b4bc
00000300: 82ca fb3c 5689 163d 6e9a 99bd 98ae 14bd
00000310: eb85 6a3c e558 4ebd 1ad0 5a3d 84d1 2c3c
00000320: 7fd3 74bc e0fb 5fbd 8f99 9abc e496 52bc
00000330: 7a53 cebb a0e4 b0bc 1ed9 80bd 33ec e9bc
00000340: 37f3 62bd 084f 3dbc 9a0c 383d 818a f7bc
00000350: 4bd8 69bd 75a4 133d 0826 a8bc ac61 a13c
00000360: 1c47 2ebc f9b9 f43c d903 3c3d 2c0b 25bd
00000370: 2de3 3d3d ffea 983c 6835 20bd 69a5 5d3c
00000380: eebc 12bd 1474 f93b 4001 e23c 7299 14bc
00000390: 95a6 2c3c 115b c83b 408e 8dbd 5a45 ab3b
000003a0: ab33 0ebd ebde 2dbd 8d11 ef3b 53b4 07bd
000003b0: bb3a 193d 3eff 42bd b2a6 f43c 4ffa 223d
000003c0: b38c d43c 3cd9 8b3c 20c7 ce3c 8a14 02bd
000003d0: a693 c0bb 64ab 493d 9d8f c0bb 6664 3c3d
000003e0: a13b e93b 5e41 7e3d 258b 193d 8273 8bba
000003f0: 7f70 1f3d 4704 1bbd f121 51bd c8f0 c33b

conv4.0.bias f4 [64]
0.082965784 -0.06825296 0.08495657 -0.04867951 -0.0027798985 0.063899234 0.04290048 0.0012393096
-0.038637422 -0.022350911 0.03040599 -0.0060630385 0.025838489 0.10426979 -0.029756723 -0.04194709
-0.010588322 -0.021547392 -0.014979519 -0.031702913 0.12197703 -0.026646191 0.08534865 -0.026735602
-0.014576743 -0.03504908 0.0055254395 -0.024254145 -0.033222 -0.05256691 -0.04957315 -0.0095191095
0.062403608 0.00020351754 -0.024868565 -0.07495763 -0.016097546 0.016503595 -0.039808184 -0.05577027
-0.079055935 -0.034796238 0.033680446 -0.019337792 -0.035852373 -0.02283956 -0.039224055 -0.06798217
0.048340917 0.08675219 -0.043773256 -0.028495247 -0.0028949135 -0.04223953 -0.015987718 0.005312688
-0.041910075 -0.043790154 -0.065041326 -0.030083662 -0.04144429 -0.06522289 -0.0673566 0.002775051
00000000: f7e9 a93d 35c8 8bbd b6fd ad3d 2a64 47bd
00000010: f52e 36bb 9add 823d 6ab8 2f3d 5470 a23a
00000020: 4642 1ebd 4219 b7bc fc15 f93c 74ac c6bb
00000030: 3dab d33c 668b d53d 5fc4 f3bc b6d0 2bbd
00000040: a47a 2dbc 2884 b0bc a86c 75bc eada 01bd
00000050: 18cf f93d 1d49 dabc 46cb ae3d 9f04 dbbc
00000060: 4bd3 6ebc a08f 0fbd bf0e b53b a1b0 c6bc
00000070: cb13 08bd 6650 57bd 370d 4bbd 0af6 1bbc
00000080: ed9a 7f3d 5367 5539 29b9 cbbc 6383 99bd
00000090: 00df 83bc 8c32 873c e80d 23bd 5e6f 64bd
000000a0: 14e8 a1bd 8086 0ebd 82f4 093d 4a6a 9ebc
000000b0: f0d9 12bd 071a bbbc 67a9 20bd 3c3a 8bbd
000000c0: 2001 463d 22ab b13d 964b 33bd dd6e e9bc
000000d0: 97b8 3dbb 5b03 2dbd adf8 82bc 0f16 ae3b
000000e0: e6a9 2bbd 4e5d 33bd 6334 85bd 0372 f6bc
000000f0: 7dc1 29bd 9493 85bd 42f2 89bd a1dd 353b

fc.weight f4 [1, 64]
0.05692279 0.0026387088 0.07111928 -0.026966842 -0.010363686 0.03450285 0.034457583 0.000871479
-0.014298491 -0.05812295 0.06294711 -0.001767836 0.0064499564 0.10386515 -0.079137936 -0.042415928
0.06969316 0.004488252 0.013245428 0.027480656 0.1126073 0.04958837 0.041614633 -0.019804223
-0.078549765 0.040578812 0.010249666 -0.0600549 0.002822008 0.07950397 0.05361509 -0.018763024
0.07252903 -0.093986325 -0.022549182 -0.0391619 -0.041319646 0.0029831259 -0.028165134 0.036402117
0.05288235 -0.11428637 0.0321431 -0.07372574 -0.12468253 0.036556624 0.076219305 0.029899547
0.018753434 0.03818584 0.026402608 0.0056620403 -0.0011310335 0.024611712 -0.060325697 0.0038656972
0.07708601 -0.1237318 -0.007481473 -0.0008092483 0.02184767 0.017762745 0.028309558 -0.064668074
00000000: df27 693d 30ee 2c3b fca6 913d 91e9 dcbc
00000010: 73cc 29bc dc52 0d3d 6523 0d3d f773 643a
00000020: 3844 6abc 5512 6ebd 6aea 803d bcb6 e7ba
00000030: 285a d33b 40b7 d43d 1213 a2bd 53bc 2dbd
00000040: 4abb 8e3d 3012 933b 5a03 593c 1d1f e13c
00000050: a89e e63d 2d1d 4b3d 1b74 2a3d 773c a2bc
00000060: b3de a0bd f835 263d 37ee 273c 20fc 75bd
00000070: 70f1 383b fad2 a23d 7f9b 5b3d eab4 99bc
00000080: 1a8a 943d e77b c0bd 10b9 b8bc 3a68 20bd
00000090: ca3e 29bd 8c80 433b 91ba e6bc 631a 153d
000000a0: 2a9b 583d f90e eabd 7ca8 033d 85fd 96bd
000000b0: 8e59 ffbd 66bc 153d de18 9c3d e5ef f43c
000000c0: cda0 993c c168 1c3d 484a d83c a388 b93b
000000d0: 303f 94ba 809e c93c 1418 77bd a357 7d3b
000000e0: 45df 9d3d 1967 fdbd 2527 f5bb bc23 54ba
000000f0: e3f9 b23c 2d83 913c 72e9 e73c b270 84bd
